files/modello_ottimo.pth (torch, 223029 bytes, 14 tensors)

cnn_layers.0.weight f4 [32, 1, 3, 3]
00000000: 9a4c 8d3e 7e98 3e3d 1696 593e 8130 033e
00000010: 1791 9d3e a5fb 063e 2417 0b3d aab4 01bc
00000020: 765c ad3d 65f1 983d 55ff 63be 1d2e 963e
00000030: 5584 3abb 79be 173e 2f76 4dbe 3c1b 89be
00000040: 0c99 a0be e298 31be 1665 59be 8a6a 143e
00000050: 989b 263e 218b 8fbc 5c21 84be 5b79 233e
00000060: de3d 403a 1b28 a5be b101 f43d 67c6 8abe
00000070: cc9f 97bc 290a 2cbe 67ac 68be b719 9a3d
00000080: 83c5 5e3e d52c 553e c3a0 2abe 1832 273d
00000090: ff24 803d d547 983d e086 9c3e 405c 573e
000000a0: bc81 d6bd 8514 0f3e 84b0 c9bd 6a07 d33d
000000b0: a058 693e fb59 913e f969 243e b1e9 93be
000000c0: e6cf 863e 4fe4 0a3d 9716 ac3d 6557 5abe
000000d0: c6b5 eebd 7ec3 c0bd 8d09 493e eb37 b7bd
000000e0: b33d 31bc 22d5 1a3d cbb2 e43d e508 5ebe
000000f0: ab97 36be 86d4 293e c3a2 f53d 4577 91be
00000100: 9e84 a43c 1525 1b3e b19f 6f3e 9f44 d23d
00000110: 9dfc fe3d fbbf 333e 7233 7e3d e915 403d
00000120: abc2 5cbc 1577 0cbe 666b 973c 998d ad3e
00000130: 9e38 453e bc35 983e 01e3 673e 8648 6d3e
00000140: 71b0 7c3e 797c 233e 893f 673d aff4 3fbe
00000150: 7c20 2d3e 163d 493e f664 323e ecb5 0cbe
00000160: 9966 12be 8d08 24bd dc3c 7fbe 85b4 133d
00000170: 605b 5f3e 0cb9 fbbc efce 32be abb3 adbe
00000180: fead 313e 0786 283e 9484 963e 36d8 a7be
00000190: 5a44 80be 8eb7 283e 1f3e a1be d611 83be
000001a0: 159d 2b3e 0156 a73e fecd b7bd baea a03d
000001b0: a4c2 a4bc 9cbb aa3e 6dae 0f3e 8289 6cbe
000001c0: ded5 ac3d d2bc 25be fd6b 75be bb3f dabd
000001d0: a995 01be 2d55 87be 0d8e f8bc 679e ba3e
000001e0: 6e1c 22bd 0d3d a03e ce38 803e 18b4 983d
000001f0: 4dc3 403e 3e70 dbbc 319e 73be 26cd a9be
00000200: ec7e b33d ae0a bc3b 359c 9d3c 6fb2 0bbe
00000210: 74f4 f13d 165a db3d c62b 903e 219d 923e
00000220: bb39 953e 91a1 1bbe 70ea 49be 03e8 523e
00000230: 9fb1 aabd aeeb 01be deb1 133e 021e 8e3e
00000240: 557b 643d 68d4 5b3e b0d8 f53d 5983 50bd
00000250: f7da 493e f0c5 f4bd 8101 8dbe cfe7 31bd
00000260: 33ca 5f3e e474 e43c 8c55 35be b471 86be
00000270: 6b9c 953c feb6 b43d 2e5b 883e b36e 9fbe
00000280: 5753 9f3e 3e77 983d 9285 953e 5c78 8bbe
00000290: 2319 20bc cef4 7cbe 557a c7bd f244 90be
000002a0: 1ff2 833d 3d49 44bd 4a83 8f3e 6ee9 46be
000002b0: 1b83 083e 6050 54be 1ae4 8bbe 8977 11be
000002c0: df4d ee3d 54ef 24bd 95ac 44be b41d a63e
000002d0: 488e 463e 5dc6 ecbd 2a3e 5abe 0e52 bfbc
000002e0: a947 28bd 0813 96be 430a 6f3e a27d a93e
000002f0: 05f5 9fbe e390 9bbe efb8 8abc fdfe 443e
00000300: 58e8 c93d 1f02 b3bd bc35 e53d 3a9b 803e
00000310: fd7c 073e 85d9 9f3e 1204 0cbe d96d 9e3e
00000320: 9437 9b3e fe4a a6bd c829 d3bd 4a37 64bd
00000330: 6545 f4bd 4b34 da3c 2e14 19be c8b5 88be
00000340: f639 113d 6a0a 023e ebf1 a9bd 08fa 94be
00000350: 458b 2c3e 924d 64be 3291 433c 6d05 c7bd
00000360: e0b3 9fbe 0011 4e3c b05e b2bd 1637 aabe
00000370: 4889 30be 330d 0bbe f406 883d 58ec 193d
00000380: 103f 8dbd 3b28 3ebc bb7e 633e bbe1 1abc
00000390: 6459 143e 29ae abbe 47bf a2be 45fa 543e
000003a0: be83 a7be 15d5 f63d 68dd a8bb 6ae5 893e
000003b0: 727f 09be c1fe fa3c 9703 573d 2e58 e4bd
000003c0: 82f8 a1be 00fa 6c3c e706 263e 2e96 ca3d
000003d0: c352 32bb 0a27 90bd 3da9 d0bd 8bf0 46be
000003e0: f83d 71bd 9636 afbe 19e8 003e 283c 6bbb
000003f0: 7daa cbbd f423 363e 6cae 88be 4e1a 29be
0.27597505 0.046532147 0.2124866 0.12811472 0.30774757 0.13181932 0.033957615 -0.007916609
0.08464901 0.07467917 -0.2226537 0.29332057 -0.0028460224 0.14818753 -0.20064615 -0.2677859
-0.31366765 -0.17343476 -0.21229967 0.14493766 0.16270292 -0.017522397 -0.258067 0.15964262
0.00073334377 -0.3225716 0.11914385 -0.27104494 -0.018508814 -0.16800751 -0.22722016 0.07524436
0.21755032 0.20817883 -0.16662888 0.040819257 0.062570564 0.07435576 0.3057165 0.21031284
-0.104739636 0.13972671 -0.09848121 0.103041485 0.22787714 0.28388962 0.1605605 -0.2888923
0.2633049 0.03390914 0.08402746 -0.21322401 -0.11655764 -0.09412287 0.1963255 -0.089462124
-0.010817933 0.037800916 0.111669146 -0.2168308 -0.17831294 0.16584978 0.11993935 -0.28411308
0.020082768 0.15150864 0.23400761 0.10266995 0.12450526 0.17553703 0.06206078 0.046895895
-0.013474147 -0.13717301 0.018483829 0.33897093 0.19259879 0.29728496 0.22645189 0.23172197
0.24676682 0.15965451 0.056457076 -0.18745683 0.16906923 0.19652209 0.17421326 -0.13741273
-0.1429695 -0.040047217 -0.2492556 0.03606083 0.218122 -0.030727886 -0.17461751 -0.33926138
0.17351529 0.16457377 0.29398024 -0.32782143 -0.25052148 0.1647627 -0.31492707 -0.25599545
0.16759141 0.32682803 -0.08974837 0.078572705 -0.020112343 0.3334626 0.14031382 -0.2309933
0.084392294 -0.1618531 -0.23966976 -0.10656687 -0.12654747 -0.2643217 -0.030341173 0.36448976
-0.039577894 0.31296578 0.2504334 0.07456225 0.18824501 -0.02678692 -0.23790814 -0.33164328
0.08764443 0.005738578 0.019239524 -0.13642286 0.11814204 0.10710542 0.28158396 0.28635505
0.29145607 -0.15198351 -0.19718337 0.20596318 -0.0833466 -0.12687561 0.1442332 0.2775727
0.05578168 0.21467745 0.120042205 -0.050906513 0.19712435 -0.11951816 -0.2754021 -0.04343396
0.21854477 0.027887769 -0.17708415 -0.26258624 0.018263062 0.088239655 0.26632065 -0.31139144
0.3111827 0.07444619 0.2920347 -0.27240264 -0.009771618 -0.2470276 -0.0974013 -0.281776
0.06442665 -0.047921408 0.28029853 -0.19424984 0.13331263 -0.20733786 -0.27322465 -0.14205755
0.116359465 -0.040267304 -0.1920646 0.32444537 0.19390213 -0.11561272 -0.21312776 -0.023354556
-0.041083965 -0.29311395 0.23343758 0.33103663 -0.31241623 -0.30383977 -0.016933886 0.19237895
0.09858769 -0.08740639 0.1119189 0.25118428 0.13231273 0.31220642 -0.13673428 0.30943182
0.3031584 -0.081197724 -0.103107035 -0.05571679 -0.119272985 0.026636263 -0.14949104 -0.26701188
0.035455666 0.12699285 -0.08298095 -0.2909701 0.16850002 -0.22295216 0.011936473 -0.09717832
-0.3119192 0.012577295 -0.087094665 -0.33245152 -0.17239869 -0.13579254 0.06641951 0.03757891
-0.06896794 -0.011606271 0.22216313 -0.009453232 0.14487225 -0.3353131 -0.31786558 0.20798595
-0.327177 0.12052361 -0.005153347 0.26932842 -0.13427523 0.030639054 0.052493658 -0.111496314
-0.3163491 0.0144639015 0.1621357 0.09891926 -0.0027209974 -0.07038696 -0.1018853 -0.19427697
-0.05889699 -0.34221333 0.12588538 -0.003589401 -0.099446274 0.17787153 -0.26695573 -0.1651394

cnn_layers.0.bias f4 [32]
00000000: 1ef3 733c 43fe 713e a62c 3a3e 411b 8dbb
00000010: 7965 963d 8e08 6134 c6aa 1bbc c24e a83d
00000020: 1bb1 7e3e f424 ac3d 6e73 4d3e 1c2d a4be
00000030: 8ace 153d 4bfb 3fbe 9fe4 9fbe ae99 493e
00000040: 9aac a43b 9df3 8cbe 0ab2 2f3e 3f1a 403e
00000050: 2cc1 993e 2bc6 753e 8def 803e 524d 0fbe
00000060: f7a4 8abe c132 67be e759 633e 1719 66bd
00000070: 0197 603e 0baa a93d c2f3 343e 5b58 8f3b
0.014889507 0.2363215 0.18181095 -0.0043062274 0.07343573 2.095787e-07 -0.009501165 0.08218147
0.24872248 0.08405486 0.20063564 -0.32065666 0.036573924 -0.18748204 -0.31229112 0.1968753
0.0050254585 -0.27529612 0.1715776 0.18760012 0.3003019 0.24001376 0.25182763 -0.13994339
-0.27078983 -0.22577955 0.22202264 -0.05617627 0.21932603 0.08284386 0.17671111 0.0043745465

cnn_layers.2.weight f4 [32]
00000000: 93fc 7e3f 0d42 793f b908 803f b6c5 783f
00000010: 872f 803f 6d82 823f dab7 7f3f dc3a 803f
00000020: 16e4 7f3f cf48 7e3f cae7 813f 0000 7f3f
00000030: 1704 823f 6b50 7f3f 5397 773f aa23 7f3f
00000040: e101 803f 6110 713f 1e19 7e3f f3bc 7b3f
00000050: e7d5 823f 2da7 7e3f 5d31 823f e9d5 7f3f
00000060: 0000 803f b290 6d3f 529b 833f 38df 7b3f
00000070: 7d5c 833f fa94 813f 03f3 813f 8f8c 833f
0.9960415 0.9736641 1.0002662 0.9717668 1.0014504 1.0196053 0.9988991 1.0017962
0.99957407 0.9932985 1.0148861 0.99609375 1.0157498 0.99732083 0.9671528 0.99663794
1.0000573 0.9416562 0.99257076 0.9833519 1.0221528 0.9947384 1.0171314 0.99935776
1.0 0.9279891 1.0281775 0.9838748 1.02626 1.0123589 1.0152286 1.027727

cnn_layers.2.bias f4 [32]
00000000: 4aa3 08bc 42f4 173d 0c3a d2bc 0a24 6f3c
00000010: e77e 83bc 2dc6 cbbb 2933 a83c f15e 3a3c
00000020: b1f9 93bb 878a 1cbb b2d3 f6bc 6dab 7a3d
00000030: 7e61 5b3d cb6d 5cbd b9ef 3d3c 1c3a 333d
00000040: f8a6 403d 22a0 56bc dc43 233d 41ac 563d
00000050: 9d91 f13c 4a1c 7b3d c6e4 923c e6ee 1b3d
00000060: 0c33 c93d 880f 673c be89 4a3d faec 063c
00000070: 3491 413d b870 153d 6b12 2d3c 89aa f23c
-0.008339712 0.037098177 -0.025662445 0.014595995 -0.016051723 -0.0062186928 0.020532208 0.011375175
-0.0045158495 -0.002388628 -0.030130241 0.06119864 0.053559773 -0.053815644 0.011592799 0.04375659
0.047034234 -0.013099702 0.039859638 0.052410368 0.02948838 0.061306275 0.017931353 0.03806963
0.098241895 0.014102824 0.049447767 0.008235211 0.047257617 0.03648445 0.010563473 0.029622333

cnn_layers.2.running_mean f4 [32]
00000000: a317 1d3f 763f 193d f45a 9d3d d172 e43a
00000010: 4e2d 063f 8306 8c3d 5eab 733d e0ea ca3e
00000020: 6af1 703f 4def 573e 256f 783e 7dd0 8c34
00000030: 2925 083c 1a87 783e 14b4 e138 231d 043f
00000040: 40ea 273e a41c 273a 2045 293d 4536 123d
00000050: 897a 3e3e a8d7 133f 1f3b 7f3e 5dfa d136
00000060: 0000 0000 f5e9 f535 76f2 523e b88c 9233
00000070: ac47 b53d 1c90 e13d 244f c53d 7ecc b13c
0.6136419 0.037414037 0.076833636 0.0017429237 0.5241288 0.068371795 0.0594896 0.3963232
0.9411837 0.2108738 0.24261148 2.6228727e-07 0.008309641 0.24270287 0.00010762378 0.5160696
0.16397953 0.0006374812 0.04132569 0.035696287 0.18601431 0.5775094 0.24924897 6.2578315e-06
0.0 1.8322013e-06 0.20600304 6.8242514e-08 0.08851561 0.11013815 0.096342355 0.021703955

cnn_layers.2.running_var f4 [32]
00000000: 3ad9 9e3d 6a8d a33b babe 993b 8263 1439
00000010: e0c1 3a3d cbec 8c3b 9ed0 c63a dfd3 b83c
00000020: adb4 d93d ff1a b53b 3b1e 693b 91da 5032
00000030: 719d 5e3a bed9 023d cdc1 bf36 0298 c73c
00000040: 4092 0a3c b141 a038 2272 493b 05e9 753b
00000050: a246 473c 95eb fb3c 3e95 933b a9f8 b134
00000060: 0400 0000 8d15 c033 5cbc f63a 8069 8b30
00000070: 7f9f f83b f01f d53a c9d4 9e3b bdac 8c3b
0.077562764 0.004991223 0.004691926 0.0001415145 0.04559505 0.004300689 0.0015168374 0.022561966
0.10630164 0.0055269 0.0035570997 1.215689e-08 0.00084920885 0.031945936 5.714805e-06 0.024364475
0.00845772 7.6416305e-05 0.0030738194 0.0037522924 0.012162836 0.030751983 0.004503875 3.3149743e-07
6e-45 8.944617e-08 0.0018824446 1.0143566e-09 0.007587373 0.0016260128 0.0048471433 0.004293053

cnn_layers.4.weight f4 [16, 32, 3, 3]
00000000: 5a33 3cbd b8d4 c13a 5096 913c 5aa8 26bd
00000010: 3778 863c 3bfe edbb 08ca 27bd 4c73 0abd
00000020: c79b 2bbd 12f3 883d a17b 83bb 6e35 283d
00000030: 94eb 563c 434f 1c3d f08b be3c 50cc af3c
00000040: e7a7 bfbb c687 3b3b 55f1 b0bc 0c98 fd3c
00000050: 9ac8 43bd 40b3 15bd 2f07 8d3c 875f 4a3b
00000060: 7237 523c 22a6 80bc 8abc bebd 3d48 393b
00000070: 2ae1 49bd cfd2 f53c fef2 953b 64f8 bfbc
00000080: d3cf 62bb d1f0 363c 3385 34bc 95ec 24bc
00000090: f585 393d bec5 043d 4337 78bd 5799 a23c
000000a0: f38b e0bc 748b 2abd e5aa 453d 5514 efbc
000000b0: 4b6f 933c 97ed 2b3c fa58 813d 0144 54bc
000000c0: 6885 0dbd 5c6a 1d3c 299c 143d b06f 5c3d
000000d0: 6e4d 86bc 8f99 8dbc e3f9 023d e140 37bd
000000e0: 5462 cabc 4005 4bbd de72 843d d425 683d
000000f0: 6bd9 38bd bd9a d53c 490c 73bd 312a 853d
00000100: 130e 883b 2b0b 4dbc e901 883d e436 1bbc
00000110: 0d89 49bd 546a e9bc ee75 983d 4ff1 003d
00000120: 5e3c 4e3d 329f 023c bf91 393b ce87 373d
00000130: b6c0 b4bc 029d a7bc 8c41 f93c a006 b93b
00000140: 7ec0 41bd 7b8a 4d3c f1d7 6a3d cc6a ceba
00000150: d026 3c3b 5252 013d 77da b23c 8934 b53c
00000160: 1642 d03c 868d 58bd d236 bb3c 9da0 20bd
00000170: 65ff 4a3c 3466 833c 4ca8 db3c 13d2 8d3c
00000180: 61af 28bc 659d 233c d85e 613c 5523 2fbb
00000190: b8a0 3abd 1ff7 113d 3f6d ea3c dd91 0d3b
000001a0: 880f 33bd 77e6 7bbd 984c 053c 74f1 a93c
000001b0: 68ee 3f3b 80f2 3cbc dd5d 35bc a3e7 85bb
000001c0: d156 493d 8266 6abc b28e c1bc fe66 a0bb
000001d0: f67a a5bc fa02 0e3b 357c 5c3d 13f8 793d
000001e0: 6314 a9bc 18a7 703d a84c 413d 3e29 8b3d
000001f0: 3d84 57bc 79a5 2f3d 99ce 6b3c 9dcb 91bc
00000200: 6472 7c3c 4fbb 403d a784 94bc 94a2 ae3c
00000210: 4917 723d d55d 1fbc 88f5 203d 20af cdbc
00000220: f968 b13c 3f41 143b 31b1 063c 4121 b2ba
00000230: 538e 2e3b 5762 283c 7405 0a3c cf51 cbbc
00000240: 9584 54bd 4b07 29bc 2774 e5bc 0b3a f03c
00000250: f06e da3a b6ca bcbc 2914 ef3b c34d 18bd
00000260: 5cc0 c43c 2b78 613d e4c5 5cbd 00e5 cd3c
00000270: ec2a aa3c bacb 0e3d 98ef 353d 9efb 5e3d
00000280: 7f75 a9bc 47ca 863c dad9 7cbc a1dc 423c
00000290: 57c2 243d 7f57 bb3c 02c5 ee3c fe57 d13c
000002a0: 381d 53bd ae0b cd3c 951d 6fbb 45dc dabc
000002b0: 1252 9abd 7feb 0cbd 4c83 29bd 4c2e 0cbd
000002c0: 38c1 eeb9 2b2d 993c 689f 503c 9f33 e03c
000002d0: 110c 20bd 202b d23b e928 0dbd 231a 80bc
000002e0: c7a7 0b3c cb9c 6b3b 7e9c 2c3d f7d1 6f3b
000002f0: 2aa9 dd3c 998f ac3c b908 4f3d b941 713c
00000300: 4a7e 24bd 96b5 c6bb cc8c c23c 1676 553d
00000310: 647e 133d 3594 3f3c 5045 85bd c350 82bd
00000320: 964b afbc 2e6d 89bd a367 fbbc 12cc 4c3b
00000330: 3552 25bd 30b6 aabc 3e4f dabc b3be 30bd
00000340: 299c abbd 0d7c 8fbd fab2 ab3c e898 b1bd
00000350: da4f 06bd 8d57 6dbd b6db 53bd 4473 7fbd
00000360: c784 d4bd 8949 53bd dc91 ccbd 295b 58bd
00000370: 6e81 4abd b820 4abd 1c85 edbc 03a8 fbbd
00000380: e7ed a7bc 720b cd3c 0d99 d9b8 35d8 bc3c
00000390: 8dd3 1e3d 00d4 5dbd fdba f1bc 8c4f cabc
000003a0: a509 b03c 54bc ea3b e82b 85bd 279c df3c
000003b0: 8d0a f1bc 3abf a1bd 5681 5bbd 75dc 13bb
000003c0: 62ad 19bd a2e6 6bbd 6caa 73bc 0b32 23bc
000003d0: b2fe 2dbd 3fe0 16bd 008b 133d 59b9 193c
000003e0: fada 093d 16f4 f93c 5747 fb3a 5f73 3a3d
000003f0: 79ef 853b 446f a33c 8971 2cbd 4c98 963b
-0.04594741 0.0014788127 0.01777187 -0.040687896 0.016414745 -0.0072629726 -0.040964156 -0.033801362
-0.041896608 0.06686987 -0.0040125404 0.04106658 0.01311769 0.038161527 0.023260087 0.021459728
-0.005848873 0.0028614863 -0.021599451 0.03095629 -0.04779873 -0.0365479 0.01721534 0.0030879693
0.012830602 -0.015704218 -0.09313305 0.0028271817 -0.049287 0.030007748 0.004576086 -0.023433872
-0.0034608736 0.011165814 -0.011018085 -0.010066171 0.045293767 0.032415144 -0.060599577 0.019848509
-0.027410483 -0.0416369 0.04825868 -0.0291845 0.017997405 0.010493658 0.06315799 -0.0129556665
-0.034551054 0.009607878 0.03628174 0.05381745 -0.016394343 -0.017285137 0.03197659 -0.044739608
-0.02470509 -0.049565554 0.06467222 0.0566767 -0.04512922 0.026074762 -0.059337888 0.06502188
0.0041520684 -0.01251487 0.06640989 -0.009473536 -0.049202967 -0.028493084 0.07444368 0.03148013
0.05035054 0.007972525 0.0028315631 0.044807248 -0.022064548 -0.02046061 0.030426763 0.0056465417
-0.047302715 0.012545223 0.057334844 -0.0015748381 0.0028709657 0.031572647 0.021832688 0.022119777
0.025422137 -0.052869342 0.022853289 -0.039215673 0.012389992 0.016039945 0.026813649 0.017312085
-0.01029572 0.009986256 0.013755523 -0.002672394 -0.04556343 0.035636064 0.028616546 0.0021601834
-0.043715984 -0.061499085 0.008135937 0.020745017 0.0029286388 -0.011532426 -0.011069742 -0.004086451
0.04915506 -0.014306666 -0.023627613 -0.00489509 -0.020200234 0.0021669255 0.05382939 0.061027598
-0.020639604 0.058753103 0.047192246 0.06794976 -0.013154087 0.042882416 0.014392518 -0.017797286
0.015408132 0.04705363 -0.01812966 0.021317758 0.059104238 -0.009726961 0.039296657 -0.02510792
0.0216565 0.0022621898 0.008220957 -0.0013590233 0.0026635125 0.010277352 0.008424152 -0.024819283
-0.051884253 -0.01031668 -0.028009487 0.029324552 0.0016665142 -0.023045879 0.0072961044 -0.037183534
0.024017505 0.05504624 -0.05389966 0.02513361 0.02077242 0.034862258 0.044417948 0.05443918
-0.02068591 0.016453875 -0.015432799 0.011893422 0.0402244 0.02286887 0.029146675 0.025554653
-0.051541537 0.025029983 -0.0036486138 -0.02671636 -0.07535185 -0.034404274 -0.04138498 -0.03422384
-0.00045538857 0.018698296 0.012733318 0.027368365 -0.039074007 0.0064138323 -0.034462843 -0.015637463
0.008523888 0.003595161 0.04214143 0.0036593655 0.027058203 0.021064566 0.050545428 0.014725142
-0.0401595 -0.006064127 0.023748778 0.05211457 0.036009207 0.01169305 -0.06507361 -0.0636306
-0.021398347 -0.067102775 -0.030689066 0.0031249565 -0.0403616 -0.020838827 -0.026649114 -0.043150615
-0.083793946 -0.07006083 0.020959366 -0.08671743 -0.032790996 -0.057944823 -0.051723205 -0.062365785
-0.10376888 -0.0515838 -0.09988758 -0.052821312 -0.04943984 -0.04934761 -0.028994136 -0.12287905
-0.020499183 0.025029872 -0.00010375874 0.023052314 0.03877597 -0.054157257 -0.029508108 -0.024696134
0.021488974 0.0071635637 -0.06502515 0.027296139 -0.029423976 -0.07897802 -0.05359014 -0.0022561823
-0.037518866 -0.057592995 -0.014872175 -0.009960662 -0.042479225 -0.03683495 0.036021233 0.009382569
0.033656098 0.030511897 0.0019171041 0.045520183 0.0040873853 0.019950517 -0.042100463 0.004595792

cnn_layers.4.bias f4 [16]
00000000: 84e7 79bc 4931 2dbc c04f 66bd 245c c4bb
00000010: 41d1 91bb c0ed 9a3c 943f 84bc 5c4c d13c
00000020: 6d4f bcbd ca7a e63b bbfc 6abd 8826 88bc
00000030: 1167 c33b 9f0e 04bd 8689 efbc acdc d43c
-0.0152529515 -0.0105708325 -0.0562284 -0.0059924293 -0.004449994 0.018912196 -0.016143598 0.025549106
-0.09194837 0.0070336806 -0.05736993 -0.016619936 0.005963214 -0.032240506 -0.029240381 0.02598413

cnn_layers.6.weight f4 [16]
00000000: 7dbe 853f dba9 923f 05f1 903f dd84 963f
00000010: 24a0 973f 1276 9e3f 2f91 873f 8189 8a3f
00000020: ffe0 8c3f c730 913f 4511 8d3f 1240 853f
00000030: 87ae 943f 4cbf 903f 9a2d 8f3f fb4e 8a3f
1.0448757 1.1458086 1.1323553 1.1759297 1.1845746 1.2379782 1.0591182 1.0823213
1.1006163 1.1343011 1.1020895 1.0410178 1.1615762 1.1308379 1.1185791 1.0805353

cnn_layers.6.bias f4 [16]
00000000: a6c9 48bc 6fdd ddbb b1e4 bcbb 5312 32bb
00000010: 82ce f1bb 2cef 133e 99d2 2abd 9f3e ce3c
00000020: 68a0 23bd 7f3d 2dbc f5bb ebbd 8477 5cbd
00000030: 5246 533d 379e 28bd 58eb 6dbc 8293 86bd
-0.012255108 -0.0067707817 -0.005764567 -0.0027171567 -0.007379354 0.14446706 -0.041704748 0.025176344
-0.039947897 -0.010573744 -0.11510459 -0.053824916 0.051580735 -0.04116651 -0.014521442 -0.06571104

cnn_layers.6.running_mean f4 [16]
00000000: 43ef fc3d 77c4 093c e790 f73b 883f eb3b
00000010: b63b f63c fc29 953b e452 693b 9bc3 d93c
00000020: 7b05 093d 4c43 133c c8e2 1a3c 4b86 2d3c
00000030: cab7 023c ad3c 173c cf73 403c 0196 5c3c
0.12350323 0.008408657 0.0075551155 0.0071792044 0.03005777 0.004552124 0.0035602385 0.02658253
0.033452492 0.008988213 0.009453483 0.0105911 0.007978389 0.009230775 0.011746361 0.013463498

cnn_layers.6.running_var f4 [16]
00000000: 5bcb 6b3d a346 0c3b 7d5c 033b 010f bf3a
00000010: 6225 843c 7ecb aa39 cb1b c239 8a25 b03b
00000020: e562 133c bdce 0f3b 5441 443b dabd c23a
00000030: ffa1 a43a 921c 543b 357f 203b ac25 7a3b
0.05756698 0.0021404407 0.002004414 0.0014576615 0.016131107 0.0003257654 0.0003702327 0.0053755688
0.008995746 0.0021943294 0.0029946165 0.0014857606 0.0012560486 0.0032365662 0.0024489884 0.0038169427

linear_layers.0.weight f4 [7, 7056]
00000000: 9fb2 9c3c 75c7 30bc 4662 aa3c 23e7 ff3c
00000010: 4544 113d 89c5 963c b404 263b cfef 0c3c
00000020: 4898 9bbc 3139 c6ba 38fb 14bc f1a0 c6bc
00000030: 2c3b d2bb 16a5 57bb 0430 1aba 6c76 503c
00000040: c5fc 503a da9e fcbb 635b 0fbc c7ed 0abd
00000050: 469b 6cbc 0643 4d3c a7e4 01bb b86b ab3c
00000060: e08b 3f3d de0d f83c 3aa1 973c a393 043d
00000070: 3010 d53c 3ffe c73c 41f2 903c 54a0 863c
00000080: 190b 9ebb 8b66 7bbc 4a63 f8bc 19f0 73bc
00000090: cf43 a93c 09db 173c 6de2 79bc 1fa7 a8bc
000000a0: 0880 7ebc 8060 ea3b ede6 3c3b 12f8 f7bb
000000b0: 98f1 1e3b 5dfa 203c 5bc9 29bb ae73 a3bb
000000c0: 1b7f 263c c4d0 8c3c c260 e63a a308 ba3a
000000d0: c93d 2bbc 002f 14bc bdf2 43bc 5a18 b9b9
000000e0: e108 cdba 5b6b 413c c1ae 04ba 0d4c c83b
000000f0: 7132 85ba f508 09bc 8b86 95bc bdd8 0f3c
00000100: c0fc 01bd c2ca 09bb c1e4 843c ff5d 05bb
00000110: dd34 fcbb eb7d 83bc 539e 453b ec49 f8ba
00000120: 4cb5 e93b 513c 9fbb 41da bcbb 2926 88bb
00000130: c934 9a3b 6deb bf3c 3372 303c cc93 b33b
00000140: 01f3 32ba a2e3 fb3a c9c6 b3bb bdd2 babc
00000150: 063a ecba d296 beba cf16 0c3c 0880 443c
00000160: ceed 89bc 60be 4d3c 61e4 b33a 1588 333c
00000170: 9a03 393c a72e bb3c 7ff0 d13c 0e47 023d
00000180: 769e 913c bf4a 963c fa31 863c 2010 983c
00000190: 03e1 913c 2f94 80bc ed47 27bb 6a33 9a3b
000001a0: b674 f6bb 39a9 aebb a803 bf3b 9665 9a3b
000001b0: ae2b cfbc 5e71 04bd e36f 64bc f4a9 c33b
000001c0: 2b32 293a 28de d2bc e88f a23c ccec c63c
000001d0: 783f 113d 801a 8c3b 1e1b 21bd 83ca d2bc
000001e0: c4be efba 4f2b 333b 43fe 973c 9766 82bc
000001f0: 86d4 90bb 9f9b 2cbb 5205 e3bb 9ca5 d53a
00000200: 48c4 3b3c d966 29bd dda2 a4bc adaa 2fbb
00000210: fa33 e7bb 380a db38 d963 95bc 8aac 69bc
00000220: cdd0 013d 298a 283d 4842 683c e869 2f3c
00000230: 01ca 7eba f5da ac3c 49bd 803c 6e05 1a3a
00000240: 3688 3bbc 6b31 873b 4003 bdbb 0449 09bd
00000250: 1cd0 b0bc 95b5 063c 8e2e 78bc 92f7 e4bb
00000260: 47e3 aa3b dea7 8abc f49a 33bc d17e 8cbc
00000270: 93dd 23bb 4a37 933b 40c9 803b db9b 853c
00000280: 1bbd d83b 7a40 9d3c ffb5 b43c c7f8 9c3c
00000290: 915e 19bc 044f 0f3c a160 1d3c a862 64bc
000002a0: a3f3 f2bc f7aa 2abc 22d7 fbbb dd77 9bbc
000002b0: d854 20bd 5300 04bd 0776 323c 5a3d 2ebc
000002c0: e00b 58bc b901 70bc cbf6 babc a876 e73b
000002d0: 8826 b6ba 41b6 21bc 205c 7a3c 0ae4 5c3c
000002e0: dff1 83bc 9b55 eabc 137f 5d3c cb9e f63b
000002f0: 51c8 69bc 24c2 e7bb 6535 803b 1e28 53bc
00000300: 4bd5 5fbc 34a6 6dbc 924e 80bb b04e 573c
00000310: 93f0 9dbc a836 55bc 6806 07bd 94a0 dbbc
00000320: 17d1 993c 296e 2ebc af01 1cbd ece7 89bc
00000330: 6f29 babc f066 a1bb e03b 923c 848d 973c
00000340: a483 183a 99d9 9aba b0ea 663b 59b1 df3b
00000350: 622e a23b 27e3 3038 3b1a 4bbc a3a2 0ebd
00000360: b7a8 94bb a2ea ddbb 2972 5ebc 520b f6bb
00000370: e35f dcbb a54f a73c 061a 83bb 31cb 38bd
00000380: d10a dabc a841 5fbc d280 513b 1f7a 2e3c
00000390: 49da b33c 9ea2 94bc 7ac4 67bc 756f 19bc
000003a0: 9afd 973c 4e53 f63b fa2a 77bc 0164 0abd
000003b0: 7414 dcbc 6465 403b 00a2 9dbc 8de3 adbc
000003c0: 4951 8abc 9e0a 8fba f183 0fbc 59d8 6dbd
000003d0: c9a2 8abd 7b28 59bd 94a0 80bb f7e7 1ebc
000003e0: 1090 e6bb 6e7c 08bd 8ca1 81bc fdfb 703c
000003f0: e91d 00bd 8486 dd3c 29d5 ac3c 9df3 dcbb
0.019128142 -0.010789742 0.020798814 0.031238144 0.035465498 0.018404739 0.0025332393 0.008602097
-0.018993512 -0.0015123246 -0.009093098 -0.024246665 -0.0064157452 -0.0032904795 -0.00058817887 0.0127235465
0.0007972236 -0.0077093663 -0.008749816 -0.03391817 -0.014441317 0.012528187 -0.0019820125 0.020925388
0.046764255 0.03028005 0.018509496 0.03236736 0.026008695 0.024413226 0.01769364 0.016433872
-0.0048231003 -0.015344272 -0.030320782 -0.014888787 0.020662216 0.009268531 -0.015251738 -0.020587502
-0.015533455 0.007152617 0.0028824166 -0.007567414 0.0024252888 0.009825316 -0.002590737 -0.0049881553
0.01016214 0.017189391 0.0017576443 0.0014193248 -0.010451742 -0.009044409 -0.011959729 -0.00035304093
-0.0015642905 0.011805381 -0.0005061441 0.0061125816 -0.0010162127 -0.008363952 -0.018252632 0.008779702
-0.03173518 -0.0021025394 0.01622236 -0.0020350215 -0.0076967315 -0.016051253 0.0030154183 -0.0018942929
0.007132208 -0.004859485 -0.0057633226 -0.0041549397 0.0047059995 0.02342769 0.010769415 0.0054802652
-0.00068263715 0.001921762 -0.0054863435 -0.022805566 -0.0018022663 -0.0014540798 0.00855036 0.011993416
-0.016837027 0.012557596 0.0013724678 0.010957737 0.011292363 0.022849394 0.025627373 0.031806044
0.017775755 0.018346189 0.016381253 0.018562376 0.01780749 -0.01569566 -0.002552505 0.004705836
-0.0075212372 -0.0053302315 0.0058292933 0.004711817 -0.025289383 -0.032334678 -0.0139426915 0.0059711877
0.0006454314 -0.025740698 0.01984401 0.024282835 0.03546092 0.00427562 -0.0393325 -0.02573133
-0.0018291106 0.0027339046 0.018553859 -0.01591806 -0.004419866 -0.0026337875 -0.0069281245 0.0016299966
0.011460371 -0.04135785 -0.02009719 -0.0026804612 -0.0070557566 0.00010444637 -0.018236088 -0.014262328
0.03169327 0.041147385 0.014175959 0.010706402 -0.0009719432 0.0211005 0.015715258 0.0005875443
-0.011446049 0.004125764 -0.0057682097 -0.0335169 -0.02158361 0.0082220035 -0.015147818 -0.0069875205
0.005215082 -0.016925748 -0.010962237 -0.017150315 -0.0025003895 0.004492675 0.003930241 0.01630967
0.00661434 0.019195784 0.022059439 0.019161595 -0.009360925 0.008746866 0.009605558 -0.013939537
-0.02965719 -0.010416738 -0.007685558 -0.018978054 -0.039143413 -0.03222687 0.010892398 -0.010634745
-0.013186425 -0.014648848 -0.022822758 0.0070637055 -0.0013896981 -0.009870113 0.015280753 0.013482103
-0.016106544 -0.028605273 0.013519066 0.007526254 -0.014268951 -0.007072704 0.003912615 -0.012887983
-0.013661693 -0.014504958 -0.0039156163 0.013141319 -0.019279754 -0.013013519 -0.032965094 -0.026809968
0.01877646 -0.010646381 -0.038087543 -0.016834222 -0.022724835 -0.004925601 0.017850816 0.018500097
0.0005817956 -0.0011814117 0.00352351 0.0068265614 0.004949377 4.2173222e-05 -0.012396391 -0.03482307
-0.004536714 -0.006772355 -0.013577023 -0.0075086737 -0.006725298 0.02042372 -0.004000905 -0.045115653
-0.026616486 -0.0136264935 0.0031967652 0.010649233 0.021954672 -0.018143948 -0.014145965 -0.009364952
0.018553544 0.007517255 -0.01508593 -0.033786777 -0.026865222 0.0029357309 -0.019242287 -0.021226669
-0.016884463 -0.0010913198 -0.008759485 -0.058067653 -0.0676933 -0.05301712 -0.0039253924 -0.009698859
-0.0070362166 -0.03332179 -0.015824102 0.014708516 -0.031278525 0.027041681 0.021097736 -0.006742908

linear_layers.0.bias f4 [7]
00000000: 0b6a 133b 97f9 4dba a58d 303c 9e4d 0d3c
00000010: 1bbb adba cc63 c0bb 0493 9d3b
0.0022493626 -0.0007857321 0.010775958 0.008624462 -0.0013254614 -0.0058712717 0.0048087854
