files/modello_ottimo.pth (torch, 420021 bytes, 14 tensors)

cnn_layers.0.weight f4 [16, 1, 3, 3]
000000 fb 03 03 3e c1 f3 58 ba 75 8f 52 be 4a bd d2 3d
       0.12794487 -0.0008276068 -0.20562537 0.1029001
000010 38 9a 8b be cc 4c 95 3e 64 85 ed 3c 70 07 5d 3e
       -0.27266097 0.29160154 0.02899427 0.21584868
000020 40 2a aa be 54 37 16 be cd 20 d7 bb 73 a8 48 be
       -0.3323536 -0.14669544 -0.0065651895 -0.19595508
000030 72 46 88 be 48 56 84 be 28 80 81 bd 86 b4 48 3e
       -0.26616246 -0.25847077 -0.06323272 0.19600114
000040 dd 6b 95 be 19 43 7e 3c 83 3a da 3c 54 2e 1f 3e
       -0.29183856 0.015518927 0.026639229 0.15545017
000050 c2 9f 85 be 8b c5 74 3e 75 d1 6a 3e a3 b6 55 bd
       -0.26098448 0.23903482 0.22931464 -0.05217613
000060 8d e6 88 bd b2 9c c5 3d d8 0f 9b 3e d1 76 97 bd
       -0.06684599 0.09649028 0.30285525 -0.07395709
000070 14 56 a5 3e 8b 71 b3 be 81 cf 49 be 03 a1 c8 3d
       0.32292235 -0.35047564 -0.19708063 0.097963355
000080 c3 e8 a2 be 87 7f dc 3c 51 da 13 3e d3 b9 80 bd
       -0.31818208 0.026916279 0.1443875 -0.06285443
000090 3f 31 8e be 9a fd a7 3e 69 cf 0e 3e 18 1d 94 bd
       -0.27771947 0.3281067 0.13946308 -0.07232112
0000a0 7b f5 d0 3d d6 4a 82 be c0 4f 22 3e e8 10 5b 3e
       0.10203072 -0.2544772 0.15850735 0.21393168
0000b0 f7 65 ae bc 53 48 cc bd 86 87 8b 3e 42 18 3d 3e
       -0.021288855 -0.09974732 0.27251834 0.18466285
0000c0 93 0a 77 be 9f 7d b6 3e 66 bb 38 be 37 9c 3f 3e
       -0.24125127 0.35642716 -0.18040237 0.18711935
0000d0 d6 13 06 bd e5 2c a9 3d 29 30 61 be 88 90 a4 bd
       -0.03273376 0.08260516 -0.21991028 -0.0803538
0000e0 2c 52 bb bd 26 78 a7 3e b8 36 1d be b9 ce 71 3e
       -0.091465324 0.32708853 -0.15352905 0.23614015
0000f0 99 33 02 be 3a 5e 0d be 5f 17 21 3e c7 97 8f be
       -0.12714995 -0.13805476 0.15731572 -0.28045484
000100 6c 98 a6 3e 18 6b 53 3e 2a 6e d5 bd d7 3f ef bd
       0.32538164 0.20646322 -0.10421403 -0.11682098
000110 a4 d4 e6 3d 25 32 84 3e 08 12 51 be 0b 91 5b be
       0.11271027 0.25819507 -0.20417035 -0.21442048
000120 ac d7 93 bc 07 4d 10 3e 86 f0 aa bd 78 88 0c be
       -0.018047176 0.14091884 -0.083466575 -0.13723934
000130 b8 52 ee bd 78 26 f1 bd b2 cd 37 be 46 2e 1c 3e
       -0.11636871 -0.117749155 -0.1794956 0.15252027
000140 50 ed 0c 3e e2 d4 61 3e 80 03 90 3e 5d 88 a6 3e
       0.13762403 0.22053865 0.2812767 0.32525912
000150 2f 33 6f 3e 7d b9 21 bc 48 ec ec bc a5 95 7f 3c
       0.23359369 -0.009870884 -0.028921261 0.015599643
000160 23 f9 67 3e 51 62 89 bd 5f 1a 96 bd d7 b0 19 be
       0.22653632 -0.067082055 -0.07329249 -0.15008865
000170 68 70 d8 3d 24 74 9f bc 68 7c ee 3d d0 a7 29 bd
       0.10568315 -0.01946456 0.11644822 -0.041419804
000180 73 13 f9 3d 19 8e 70 be 4b fd 16 3e 92 3e 1f bd
       0.12161913 -0.23491706 0.14745061 -0.03887803
000190 2e 42 42 be 94 19 80 3e 98 ff a6 bd 9c fa e5 3d
       -0.18970558 0.25019515 -0.081542194 0.112294406
0001a0 ad 9b eb 3d 37 db 8c 3e 11 23 c8 3c 52 82 0a bd
       0.11504302 0.27510998 0.024430783 -0.03381569
0001b0 e7 df d3 3d 01 d3 15 3b 42 0f a1 be 54 20 8d 3e
       0.1034544 0.0022861364 -0.31456953 0.27563727
0001c0 15 f3 a5 3d d3 8f 51 be 07 9b 6f bb 5b 0f 11 3e
       0.08103005 -0.20465021 -0.003656091 0.14166014
0001d0 96 99 a1 3d 10 c1 a9 3d c4 a2 db bd 0e 6d 30 3e
       0.07890622 0.08288777 -0.107244045 0.17229101
0001e0 0c f3 a3 be 7e 0c 3b 3d cb 78 c2 bd a0 1c 96 3d
       -0.32021368 0.04566621 -0.09495696 0.073296785
0001f0 50 c1 4d 3e 07 fe 2f 3e 4f 12 4e be 4c 62 8a bd
       0.20093274 0.17186747 -0.20124172 -0.0675703
000200 31 12 06 3e ba 79 86 3e f3 0b 14 3d 5c 4a 2f be
       0.13092877 0.26264745 0.03614421 -0.1711821
000210 e8 4d 6b 3e 06 30 bf 3d ed a1 1f 3e 93 80 73 3e
       0.22978938 0.093353316 0.15589114 0.23779516
000220 3d 0c 6d be dc c3 92 3c cc 43 0b 3e 00 79 8d 3e
       -0.231492 0.017915659 0.13600081 0.27631378
000230 74 bc 5b 3d 57 05 51 3e ff 30 95 3e 56 d6 7f 3e
       0.05364652 0.20412193 0.29138944 0.24984106

cnn_layers.0.bias f4 [16]
000000 4f ae b5 3d 51 e3 9e 3c 78 82 80 be 0f bf 1e be
       0.08871137 0.019395502 -0.2509954 -0.1550257
000010 fd 31 a8 3e 96 11 b6 bd 59 a0 a5 3e e7 cb b9 3d
       0.32850638 -0.08890073 0.32348898 0.090720944
000020 40 20 da bd c1 ee 91 be 76 59 3a 3e 6d 7e b9 3d
       -0.106506824 -0.28502467 0.18198189 0.09057317
000030 a3 0a 97 bd 0d fb 3d be c7 fb 22 be a0 31 37 be
       -0.07375076 -0.185528 -0.15916358 -0.17890024

cnn_layers.2.weight f4 [16]
000000 24 13 84 3f a9 a5 5d 3f 8d cb 7e 3f e7 be 6f 3f
       1.0318341 0.865809 0.99529344 0.9365067
000010 36 b6 7f 3f dc 7d 80 3f 97 af 82 3f 36 0d 86 3f
       0.99887407 1.0038409 1.0209836 1.0472782
000020 92 7a 70 3f 51 2e 80 3f 3e 18 86 3f d4 a3 7d 3f
       0.9393703 1.0014135 1.0476148 0.99078107
000030 58 72 82 3f c0 b6 6a 3f 60 18 7d 3f dd 6f 80 3f
       1.0191145 0.91685104 0.9886532 1.0034138

cnn_layers.2.bias f4 [16]
000000 63 8d 49 3d 8a fc 0b 3e 0a bc 9c 3c 31 8f 93 bd
       0.049207103 0.13670555 0.019132633 -0.07205046
000010 c3 85 58 bb d1 71 4b bb ca 33 ee 3c 68 b1 30 3d
       -0.0033038713 -0.0031043182 0.02907743 0.043137938
000020 5f e4 9e 3c 75 e1 8c bc 90 1c b5 3a 13 cb 57 bd
       0.019396005 -0.01719735 0.0013817716 -0.0526839
000030 0e a7 05 3b a4 03 96 3d 4d 9e a1 3d ef 46 8e 3d
       0.0020393762 0.07324913 0.078915216 0.06947123

cnn_layers.2.running_mean f4 [16]
000000 4c 7c 8e 3d b3 c0 7d 39 31 08 07 3e a2 2b 81 3a
       0.069573015 0.00024199746 0.13186719 0.0009854923
000010 ed 92 fc 3e 1b ea 42 3e 9c 58 8e 3e 68 c6 ab 3d
       0.49330845 0.19034617 0.2780198 0.08387452
000020 10 39 f4 37 c4 a2 b3 3e 6e af 29 3e bd 4e 9f 3e
       2.9113638e-05 0.35085118 0.16570827 0.3111476
000030 b7 20 1e 3d b5 24 9e 3b 4c 03 d3 3d a5 56 ed 3e
       0.038605418 0.004826153 0.10303363 0.46355167

cnn_layers.2.running_var f4 [16]
000000 06 f3 c6 3a 22 71 90 36 a2 56 7b 3c bd 79 0a 39
       0.0015178628 4.304705e-06 0.015340479 0.00013206057
000010 c1 f1 0b 3c f3 be 82 3c e5 61 51 3b d8 32 10 3b
       0.008541525 0.015960192 0.0031949219 0.0022002961
000020 53 49 40 35 87 1a 87 3d 63 e6 4c 3a d8 ed 3e 3c
       7.1632275e-07 0.065968566 0.0007816313 0.011653386
000030 4c 3b 6f 3b 3d a9 b0 39 1e 7e 0f 3c 7e c1 a7 3d
       0.003650385 0.00033695428 0.008758096 0.081912026

cnn_layers.4.weight f4 [32, 16, 3, 3]
000000 3c 48 99 3d 82 66 04 bd b4 b0 5c bd 33 56 bc bc
       0.07484481 -0.03232432 -0.053879455 -0.022990322
000010 d2 6c 05 bd f3 65 33 bd aa 21 1a 3d 0f 40 42 3d
       -0.032574482 -0.0437984 0.03762976 0.047424372
000020 8c a1 0f bb de 48 8c bd 20 7c 19 bc 4d 1a 2e 3d
       -0.0021916358 -0.06849836 -0.009367973 0.04250555
000030 de 77 06 3d 99 6f c4 3c 73 a8 0a bc d0 2a cc bb
       0.032829158 0.023978995 -0.008463013 -0.0062306896
000040 5c a3 11 3d af ad 0e bd 75 e4 97 3d a5 45 11 bd
       0.035556182 -0.034833606 0.074166216 -0.03546681
000050 66 f8 a4 bd cf 34 62 3d 16 76 8b 3d b8 1d 63 bd
       -0.08055191 0.055226143 0.068096325 -0.055448264
000060 ac 66 a3 bd ca f8 5a bd 2e 03 c5 3c d6 27 44 bd
       -0.079785675 -0.05345992 0.024049368 -0.047889553
000070 30 a0 ab 3d 9d 62 73 bc 4d f2 36 3d 3a 47 8c 3d
       0.08380163 -0.014855054 0.04466467 0.06849523
000080 29 0d 22 bd 45 96 95 bd 20 ba 60 bc 50 27 a2 3d
       -0.03956333 -0.07304052 -0.013716251 0.079176545
000090 73 26 88 3d 14 ab 94 3d 04 24 03 3d 54 e4 5e bd
       0.066479586 0.07259193 0.03201677 -0.05441697
0000a0 cd 80 82 bd ad 84 fb bc 13 13 ee 3c 1e 6a 5d 3d
       -0.06372223 -0.030702913 0.02906183 0.05405628
0000b0 d9 d1 c3 3c 01 c9 19 3d c6 eb 79 3d 32 1b 79 bc
       0.023903774 0.037545208 0.061015867 -0.015204238
0000c0 f5 04 46 3d 7c 94 10 3d e0 2b 0f 3d 79 60 90 3c
       0.04834457 0.035297856 0.03495395 0.017624127
0000d0 fe ac 82 bd 2b 16 30 bd 6d dc 6e bd 0e 1c af bc
       -0.06380652 -0.04298989 -0.058315683 -0.021375682
0000e0 2c 61 88 bd d9 36 5f bd 4b a9 61 bd 2d b5 62 3d
       -0.06659159 -0.054495666 -0.05509309 0.055348564
0000f0 11 b3 e8 3b 6a d8 36 3d 0c fa 4c 3d 54 98 09 3d
       0.0071014245 0.044639982 0.05004315 0.033592537
000100 ee 3a 2a bd 11 7b 44 bc 52 dd a1 bd bc fc 5d bd
       -0.041560106 -0.011992232 -0.079035416 -0.054196104
000110 a9 38 06 3d 61 d0 a3 3c dd b6 96 bd 3c c2 b2 bd
       0.03276888 0.019996824 -0.07359097 -0.087284535
000120 80 c2 35 bd 4d d5 2d 3d 15 03 32 bd 9a 9c 1a bc
       -0.044374943 0.042439748 -0.04345997 -0.009436751
000130 2a 5e a9 bd ed b9 da bc d2 a8 b9 bd 0e 0d 82 3c
       -0.082699135 -0.026699984 -0.09065403 0.015875366
000140 75 8c a7 bd 06 e8 83 3d 56 f2 86 bd 48 4c 26 bc
       -0.08181087 0.06440739 -0.06589191 -0.010150023
000150 3f 82 10 3c a0 44 20 bd 80 17 a9 3d 45 42 89 bd
       0.008820116 -0.039127946 0.082564354 -0.06702093
000160 d0 8f 28 3d ed 47 93 bc 06 b3 c7 bd dc 62 a2 bd
       0.041152775 -0.017978633 -0.09750943 -0.07929012
000170 68 5f 45 bd 9c ee b1 bd ff 25 a1 3d 45 66 52 3d
       -0.04818669 -0.08688089 0.07868575 0.051367063
000180 2a 2e cd bd 11 8a de 3c 85 33 e5 bc d9 72 1e bd
       -0.10018571 0.027165445 -0.027978668 -0.038683746
000190 43 67 32 3d 6a 87 c8 3b 47 b1 06 bc 9f 34 9a 3c
       0.04355551 0.0061196582 -0.008220977 0.01882392
0001a0 bc 7a 38 bd c0 4d 8f 3d c2 0e 88 3d 8f 05 cc bc
       -0.045038924 0.069972515 0.0664344 -0.024904994
0001b0 51 b5 ec 3b 41 0d 4a 3d 6e 70 96 bc 89 2b 61 3d
       0.007223763 0.049329046 -0.018364158 0.05497316
0001c0 b5 a7 c2 bd f9 18 94 bd 45 64 a0 bc 3f 4a 44 bd
       -0.09504644 -0.07231326 -0.019579062 -0.04792237
0001d0 48 74 a2 bd d1 c9 62 3d cb cf c1 bb 6d 95 93 bd
       -0.07932335 0.05536825 -0.0059146634 -0.07206235
0001e0 75 ab ff 3c c1 70 7b 3d 3e cf ae bd 26 f2 71 bd
       0.031209687 0.061386827 -0.08535622 -0.05906882
0001f0 7c c1 26 bd c5 fe 04 3d 37 85 28 3d 06 e3 a4 bd
       -0.040711865 0.03246953 0.04114267 -0.08051114
000200 92 87 ae bd 63 1d 47 bd 26 62 61 ba 9b ed e2 bc
       -0.08521952 -0.04861201 -0.0008597694 -0.02770119
000210 30 34 1a 3d 04 07 42 bd e1 c4 f9 bc 1f 1f 4d bc
       0.037647426 -0.047369972 -0.030489387 -0.012519627
000220 de da 2d 3d d6 8c c7 3c c2 9b 1a bd 6e 9d 94 bc
       0.042445056 0.024359148 -0.0377462 -0.018141475
000230 6c 5c 44 3d 03 c9 a8 3d db 0a db 3a 54 5c b7 bd
       0.047939703 0.08241465 0.0016711609 -0.08953157
000240 3b d0 05 3d 27 4b c9 3d 6a 3e 35 3b 3a 4d 01 bd
       0.032669287 0.09828787 0.002765561 -0.03156779
000250 77 1c 8c bd dc 33 bb bc 4e 02 32 bd 50 5a 88 3c
       -0.06841367 -0.022851877 -0.04345923 0.016644627
000260 3e fb a3 3c 6d f9 7b 3c d0 38 0d 3d e1 ae 70 bc
       0.020017263 0.015379292 0.03447801 -0.014690132
000270 00 9c a4 3c 6b c4 73 bd 59 dc a5 bd 22 0c 25 3d
       0.020093918 -0.05951349 -0.080986686 0.040294774
000280 83 80 73 3d e5 0d bf bd 0d 32 af bc 55 da 8f bd
       0.05944873 -0.09328822 -0.02138617 -0.070240654
000290 1c 2e 96 3d 0f 6f 98 3d 0c 2b 44 bd 7e c7 ba bc
       0.073330134 0.07443058 -0.047892615 -0.022800203
0002a0 07 b8 b2 3d 04 54 f6 bc cc 8c 43 bd ee f6 a6 3c
       0.08726507 -0.030069359 -0.047741696 0.020381417
0002b0 dc 6e aa 3d 56 7b 10 3c 76 e6 22 3c 4c b0 49 bb
       0.08321926 0.008818468 0.0099426415 -0.0030775247
0002c0 dc 14 a3 bc 2d 5b f4 bc d4 c0 a5 3d aa bb 8e bc
       -0.019907407 -0.029828632 0.0809342 -0.01742347
0002d0 23 a8 33 bd dd 65 92 3c f1 7c 45 3d f0 2b 66 bd
       -0.04386152 0.017870838 0.048214857 -0.056194246
0002e0 87 fd 21 3d 39 1b 9a bd 0a ad 58 3c 92 92 85 bd
       0.039548423 -0.075247236 0.0132248495 -0.06522097
0002f0 ab 69 90 bd c6 83 3c 3d 49 da 1a 3c 72 94 dd 3c
       -0.070514046 0.046024106 0.009451457 0.027048323
000300 fd 5c 0b 3d a2 db 0e bc 71 36 c2 bc e9 f7 e4 bb
       0.034024227 -0.008719357 -0.0237076 -0.006987561
000310 e7 9f a3 bd a4 52 0d 3d 7e 01 a8 bd 4c af 83 3d
       -0.07989483 0.03450264 -0.082034096 0.064299196
000320 20 b5 90 3c 8e 92 03 ba 9d 8a 98 bd cf 6b 8c bd
       0.017664492 -0.0005019092 -0.074483134 -0.068565
000330 26 65 87 bc a6 aa 8a bd 79 be ae bd b0 30 93 bd
       -0.016527724 -0.0677083 -0.085324235 -0.07187021
000340 42 55 04 bb 77 ce 8e 3d 32 9d d0 3c 43 a8 c8 bd
       -0.002019242 0.06972974 0.025465582 -0.097977184
000350 31 24 d1 bd 3d 6e 80 bc 91 ea a8 bd c2 75 2e bc
       -0.10211981 -0.015677566 -0.08247865 -0.010648193
000360 80 78 04 bd c0 99 81 3d c2 9a 6e 3d f3 71 f5 3c
       -0.03234148 0.063281536 0.058253057 0.029961562
000370 cd b3 2f bd 59 b7 04 bd a5 8d 61 3d 7c c9 c6 3c
       -0.04289608 -0.032401416 0.055066723 0.024265997
000380 de 2e 80 bb b1 42 ff 3c 4c 5f b0 bd 8c 9a f2 bb
       -0.003911837 0.03115973 -0.086119264 -0.0074036773
000390 b5 02 b0 bd 89 ca ac bd c2 c1 4b bd 0d f6 de bc
       -0.08594266 -0.08437068 -0.04974533 -0.027216936
0003a0 f9 87 68 3d 57 61 5d bd c8 23 5e bd c9 c6 2e 3d
       0.0567703 -0.05404791 -0.054233342 0.042670045
0003b0 d4 3d 8f 3d 08 9e 2a 3c 9d 22 97 b9 47 1e d8 bd
       0.06994215 0.010413654 -0.00028826753 -0.1055265
0003c0 03 35 be bd 8d a9 80 bd 4d 38 4c bd 86 2a 22 3c
       -0.09287455 -0.06282339 -0.04985838 0.009897834
0003d0 07 c9 7d bd ab 64 16 3d 72 3f 89 3b 9a 50 7b bd
       -0.061959293 0.0367171 0.0041884715 -0.061356165
0003e0 99 b5 4f bd 4e e8 8f 3d 51 e9 3b bc 95 ba 14 bd
       -0.050710294 0.070267305 -0.011469201 -0.03631075
0003f0 f2 4e 01 3d 52 bf 44 bd 76 8e 8d bd 1a a9 6e bd
       0.03156943 -0.04803402 -0.06911938 -0.058266737

cnn_layers.4.bias f4 [32]
000000 70 44 4a 3c eb 8c 78 bd 50 15 66 bc e3 5f 7c bd
       0.012345418 -0.060681265 -0.014043167 -0.061614882
000010 f7 4c 1c 3d 24 24 83 3c 64 1b 39 be 8a c4 01 be
       0.038159337 0.016008444 -0.18076855 -0.1267263
000020 5a a3 a3 bd d0 76 2a bc 52 13 cd bd 08 de 96 bd
       -0.07990141 -0.010404304 -0.10013451 -0.07366568
000030 6a 43 9e bd 62 b4 cd 3c 09 55 d8 bc 88 6e 5b bd
       -0.07727702 0.025110427 -0.026407735 -0.053572208
000040 40 82 f6 bc 21 38 d2 bd cd eb c2 bd 44 c4 be bc
       -0.030091405 -0.10264612 -0.09517632 -0.023286946
000050 fa 26 7c bd 97 72 a2 bd b9 40 23 bd 35 52 33 3d
       -0.06156061 -0.079320125 -0.039856646 0.04377957
000060 4e ce 84 bd df ea 74 bd f5 5c f0 bd af 63 34 3d
       -0.06484662 -0.059794303 -0.1173648 0.04404038
000070 49 da f4 bd 30 55 fc bb 58 b0 31 3b 64 12 68 bd
       -0.11955697 -0.007700585 0.0027113166 -0.056658164

cnn_layers.6.weight f4 [32]
000000 17 93 9d 3f df 89 8f 3f 35 41 9c 3f 66 3a 9a 3f
       1.2310513 1.121395 1.22074 1.2049072
000010 11 b2 97 3f ab 30 93 3f c5 17 93 3f 71 59 97 3f
       1.1851217 1.1499227 1.1491629 1.182417
000020 d9 d0 89 3f 93 01 97 3f b4 d4 93 3f bd 8e 9d 3f
       1.076686 1.1797355 1.1549287 1.2309185
000030 f2 01 8d 3f 3a 06 a9 3f 80 4e 9a 3f 22 a3 8b 3f
       1.1016219 1.3205025 1.2055206 1.0909159
000040 c2 e5 92 3f 90 34 8c 3f 36 d7 94 3f b1 ee 89 3f
       1.1476367 1.0953541 1.1628177 1.0775968
000050 48 88 8e 3f aa 51 92 3f 3d 26 89 3f f2 dd 84 3f
       1.113534 1.1431172 1.0714794 1.0380232
000060 bc a3 95 3f fc c8 90 3f 0b ef 88 3f cb b8 a9 3f
       1.1690593 1.1311336 1.069795 1.3259519
000070 e5 b6 8a 3f 5e fa a8 3f bb 7f 91 3f 21 d3 8d 3f
       1.0837065 1.3201406 1.1367105 1.1080056

cnn_layers.6.bias f4 [32]
000000 de 7a 53 bc 3c 7b fc bd 3a 07 56 bd eb 2d 51 3d
       -0.012907712 -0.123281926 -0.052252986 0.05106918
000010 86 ad 8c 3b 9f 44 fc bd cd 9d a2 bc 00 94 33 be
       0.0042931465 -0.12317776 -0.019850636 -0.17536926
000020 d2 d5 0d bd 02 ea 14 3d 17 16 2f bd 38 33 c1 3c
       -0.034627743 0.03635598 -0.042745676 0.023583993
000030 cf 1f 57 3c 70 0c c8 3d e0 32 93 bc 9d b3 6b 3c
       0.013130142 0.09767997 -0.017968595 0.014386085
000040 e9 e2 ae bd fb e7 c4 bd bf 67 36 3c ae a1 81 bc
       -0.085393734 -0.09614559 0.011133133 -0.015824165
000050 16 09 46 be fe a8 91 3d 32 68 27 bd ee d8 cb bd
       -0.19339404 0.07112311 -0.040870853 -0.099534854
000060 ec 82 7c 3b 18 88 80 bd 0a 43 32 3d b1 50 7e 3d
       0.0038530184 -0.06275958 0.043520965 0.062088672
000070 f3 4e 33 be 5b 29 2a 3e 08 e3 e4 bc f3 fa 12 bc
       -0.17510585 0.16617338 -0.027940288 -0.008970964

cnn_layers.6.running_mean f4 [32]
000000 67 af cb 3b e2 f0 67 3b 7a 7e 97 3b 59 7f 00 3c
       0.006215978 0.003539138 0.0046232315 0.007842862
000010 c8 2b 90 3b 96 3d d0 3b 32 ac e8 3b ee e5 e1 3b
       0.0043997504 0.006354998 0.0071006054 0.006893865
000020 8e a0 2f 3d b7 4f cc 3b 50 1a 92 3b f0 95 b5 3b
       0.042877726 0.0062350887 0.004458703 0.0055415556
000030 08 c2 ae 3c 94 15 ec 3b c1 94 99 3b 73 44 99 3c
       0.021332756 0.0072047208 0.0046869223 0.018709397
000040 3b 89 c2 3b 3a 97 6f 3c 82 e4 c2 3b 18 81 55 3c
       0.0059367693 0.014623458 0.0059476504 0.013031267
000050 13 13 4e 3b 41 e7 26 3c 65 8f cf 3c e9 b8 40 3c
       0.0031444475 0.010186971 0.02533693 0.011762836
000060 ed 62 27 3c 0b 90 26 3c f6 40 8a 3d 2f 47 34 3b
       0.010216457 0.010166178 0.067506716 0.002750825
000070 bb 17 a9 3b 39 3e 5e 3b 89 8d 91 3b 0b 3c 05 3c
       0.0051602996 0.00339116 0.004441921 0.008131991

cnn_layers.6.running_var f4 [32]
000000 ab 35 95 3a 00 83 23 3a 2a 65 89 3a ed 4b d4 3a
       0.0011383792 0.0006237477 0.001048242 0.0016196944
000010 64 6f 68 3a be b0 19 3b b7 e1 bf 3a ec 79 46 3b
       0.0008866696 0.0023451294 0.0014639412 0.0030285073
000020 30 97 11 3c fa 54 b4 3a 27 38 31 3a 9a 12 98 3a
       0.008886144 0.0013758235 0.00067603815 0.0011602223
000030 35 5f cf 3b 6f 71 ed 3a 8d 2e 52 3a 4a d5 34 3b
       0.0063284882 0.0018115471 0.0008017801 0.002759295
000040 cc ab c3 3a d1 25 c6 3b b9 13 eb 3a 10 4d 5f 3b
       0.0014928519 0.0060469885 0.0017934955 0.0034073032
000050 3d 15 34 3a 30 42 a5 3a e4 dc 09 3c 9a 94 59 3b
       0.000686962 0.0012608226 0.008414481 0.0033200146
000060 2c 44 60 3b 00 a6 41 3b cc c0 47 3c 00 b5 b1 39
       0.003422032 0.0029548407 0.012191962 0.00033894926
000070 ae f1 c2 3a 0f 56 96 39 02 e4 3a 3a e8 eb a7 3a
       0.0014873052 0.00028674348 0.0007129313 0.0012811394

linear_layers.0.weight f4 [7, 14112]
000000 b0 ba 35 bd ad e3 82 3c 31 8c 2b 3c 20 22 83 bd
       -0.044367492 0.015977705 0.010470436 -0.06402993
000010 7a 8c a6 bc 28 af e7 3c 85 6e 98 bc 6b 8c 1d bd
       -0.020330656 0.028281763 -0.018607387 -0.03846399
000020 76 a8 aa bc 91 0a 9b bc 45 0a 39 bc d0 98 09 3d
       -0.020832282 -0.018925937 -0.011293952 0.033593
000030 d9 06 84 3c f6 4d 07 bb e4 39 fe 3b 48 43 1f 3d
       0.016116546 -0.0020645834 0.007758366 0.038882524
000040 b9 94 6d 3b 50 41 48 3d 7c b8 15 3d 8a d7 15 3d
       0.0036251976 0.04889041 0.03655289 0.036582507
000050 a2 d2 34 ba 7a cd 1c bd 3d eb 06 3d c0 52 e4 ba
       -0.0006897842 -0.038281895 0.032939184 -0.0017419681
000060 00 de 93 bc 54 29 bc 3c cc 6e 39 bc f3 84 13 bd
       -0.018050194 0.022968926 -0.01131792 -0.036015462
000070 61 7b d1 bc 03 b3 b2 3c a8 82 22 bd 1b be ef bc
       -0.025571527 0.021813875 -0.039675385 -0.029265454
000080 82 15 7f 3d db d9 ae 3c e3 51 fd 3c 09 c3 0c bc
       0.06227637 0.021344116 0.030922836 -0.008591422
000090 87 25 a3 3c 26 fe cf 3b 97 b8 44 3d 0d e9 48 3d
       0.019915355 0.0063474355 0.0480276 0.04905038
0000a0 1d 77 df 3c 43 92 95 3c 78 00 5f bd 06 2a d1 3c
       0.027278477 0.01825822 -0.054443806 0.025532734
0000b0 37 d1 59 bc 03 f1 a2 bc b9 ae 95 3b 28 ad 90 bd
       -0.01329451 -0.019890314 0.0045679477 -0.07064277
0000c0 e8 be 48 bd 47 e1 08 bd 95 e1 cd bc f6 a7 4f bd
       -0.049010187 -0.033417966 -0.02513198 -0.05069729
0000d0 d6 69 0c 3c 40 8e e6 3c 3c 99 78 3c 9d 85 67 bc
       0.008570155 0.028144002 0.015173253 -0.014130977
0000e0 21 05 8b bc 93 d8 24 3d 61 e9 e7 3c 92 b2 cf 3c
       -0.01697022 0.040245604 0.028309526 0.025353704
0000f0 b7 f5 11 3d 5e 1c e3 3b 09 b1 82 3b 86 c4 35 bd
       0.035634723 0.006930872 0.0039883894 -0.044376872
000100 3f 1f 20 bd 95 28 3b bc cc ba 28 3c 72 eb d7 bc
       -0.0390923 -0.01142325 0.010298442 -0.026357386
000110 55 e9 01 bd 5c d1 01 bd ea 7a d6 bc ef c7 82 bc
       -0.031716663 -0.0316938 -0.026181657 -0.015964476
000120 00 ec 65 bd c1 86 2d 3c 72 7f 1f bd 78 9f e7 bc
       -0.05613327 0.01059121 -0.0389399 -0.028274283
000130 68 d6 47 bc e1 e7 96 bb 30 4a d0 bb 00 45 ee ba
       -0.0121971145 -0.004605279 -0.0063565 -0.0018178523
000140 ed bb c7 bc 35 44 53 bb 01 9a 03 bd d5 cb 47 bd
       -0.024381602 -0.00322367 -0.03212929 -0.048778374
000150 73 0c 2f bd be 84 94 bd 07 02 ce bc 86 55 c7 bc
       -0.042736482 -0.07251881 -0.025147451 -0.024332773
000160 12 a9 50 bd 21 09 31 bc bd 9e 80 bd 9c 24 e4 bc
       -0.050942488 -0.010805399 -0.06280277 -0.027849488
000170 32 bf e6 bb f0 40 6c bd 1c ac 28 3c ac 4b 8a bd
       -0.007041835 -0.057679117 0.01029494 -0.067527145
000180 dd 1e 48 bd 40 5f ca bc aa 5a c5 bc 95 3d ee bc
       -0.04885756 -0.024703622 -0.024091084 -0.029082099
000190 02 fc f4 bb fe 7b c6 bc b9 84 f4 bb 3d 4d ac bb
       -0.0074763307 -0.024229046 -0.007462111 -0.005258231
0001a0 a1 a0 39 bd e1 0b 15 bd 0a 0c 5b 3c 3e 11 b3 3c
       -0.045319203 -0.03638828 0.01336957 0.021858808
0001b0 fe 27 0b bd 49 41 4b bd fe c1 23 bd 9d 5c 6a bd
       -0.033973686 -0.049622808 -0.039979927 -0.05721723
0001c0 c5 46 5f bd 2e 40 18 bc 44 bf 46 bc 08 5b b6 bc
       -0.05451085 -0.009292645 -0.012130562 -0.022260204
0001d0 32 bc a1 bd 85 52 81 bd 21 a4 ac bc 03 6c f9 bc
       -0.078972235 -0.063145675 -0.021074357 -0.030447012
0001e0 b4 e9 86 3c ff 3d b9 3b d9 59 e4 bc b7 a1 e3 ba
       0.01646886 0.0056531425 -0.027874874 -0.001736692
0001f0 3a 12 c1 bc 05 ee b1 bc 09 f0 29 bd 69 94 30 3d
       -0.023568261 -0.021719942 -0.04148868 0.043110285
000200 57 b8 0c bd 8a af 79 bd 1d 34 5a 3c c3 9a 62 3c
       -0.034355488 -0.060958423 0.013318089 0.013830843
000210 7f 75 51 bd f7 25 29 bd ac 5e 63 bc bf a7 25 bd
       -0.051137444 -0.04129597 -0.013877552 -0.04044318
000220 75 b2 da bc bc 5a 4a bd 62 b7 be bc fd a0 e7 bc
       -0.026696423 -0.049402937 -0.023280803 -0.028275007
000230 44 1f 38 bd 43 7f 3b bd 98 77 e1 bc 76 44 ce ba
       -0.044951692 -0.045775663 -0.027522847 -0.0015736956
000240 d9 94 e8 bb ce d7 d7 3c a2 b1 94 bc 1b 58 6e bc
       -0.007097822 0.02634802 -0.018151108 -0.014547373
000250 ca 95 87 bc f1 95 65 bd 8f e9 66 3d 9b f8 49 3d
       -0.016550917 -0.0560512 0.056375083 0.049309354
000260 92 23 fb 3c 66 b8 eb bc 08 8b a1 bc 43 d8 c4 3c
       0.03065661 -0.028774451 -0.019719616 0.024028903
000270 72 cd a7 bd 0d 3f 2c bd 6c bb b5 bc ec ed 2d bc
       -0.081934825 -0.042052317 -0.022184096 -0.010615807
000280 7e 02 5a bd df ad 9c 3a eb 49 b2 3c 5c fe 21 bc
       -0.053225033 0.0011953673 0.021763762 -0.009887304
000290 85 27 31 bd 1f 7f e2 bc 66 e5 95 bc 5e d2 80 bc
       -0.04325058 -0.027648507 -0.018297862 -0.01572531
0002a0 c5 cd e1 3c c8 cf 7c 3b b1 14 d7 bc a8 f6 1f 3d
       0.027563939 0.0038575996 -0.026254984 0.03905359
0002b0 ac ff cb 3c 9f c7 8c bc 6e 75 b8 bd f0 03 6f bc
       0.024902187 -0.01718503 -0.09006773 -0.014588341
0002c0 20 1b 0a bd 6d 89 2e bd 91 a3 c3 bc 78 21 1a bd
       -0.033717275 -0.04261153 -0.023881705 -0.037629575
0002d0 e4 dc a3 bd a8 a2 fb bc 9c 31 87 bc b9 4e c5 3c
       -0.08001116 -0.030717209 -0.016503148 0.02408539
0002e0 50 20 08 3d c2 fb 63 ba d5 af 6a 3b 1f a8 ee bc
       0.03323394 -0.00086968776 0.003581037 -0.0291329
0002f0 41 43 dd bb f5 3b 07 3b 39 b5 15 bc 4b ab 61 bc
       -0.006752402 0.0020635102 -0.009137445 -0.01377375
000300 fd c6 33 3d 32 9e 97 3c 1e 9f e2 bc b8 0d 55 bd
       0.043890942 0.01850805 -0.027663764 -0.052015036
000310 63 76 91 bc 51 47 c7 bb af 5f 05 bd 1d ab ac 3c
       -0.017756646 -0.0060814996 -0.032561954 0.021077687
000320 cf 53 81 bd 70 9d 09 bd fa c5 77 3d f3 32 05 bd
       -0.06314813 -0.03359741 0.06049154 -0.032519292
000330 b1 5b cc bc 6e 36 fa bc 82 bc a8 39 a1 24 28 bc
       -0.024946066 -0.030543532 0.00032183906 -0.010262639
000340 9e fa 57 bc 6d 00 2f 3d d6 8a 81 3c 58 04 ef bc
       -0.01318231 0.042725015 0.015813272 -0.029176876
000350 ea 4e a6 bb f0 57 aa 3c cb cb 3e 3c 83 82 64 bd
       -0.0050753253 0.020793885 0.011645268 -0.05578853
000360 5c c3 24 bd 77 6c 51 ba 5e 48 27 bd 57 c5 61 bc
       -0.04022537 -0.000798888 -0.0408405 -0.01377996
000370 ee 0c 58 3c ce ea 0e bd 78 14 c0 bc 18 57 ed b9
       0.013186676 -0.034891896 -0.02344726 -0.00045269052
000380 9a 94 8b bc 8f ba f1 bc f9 90 01 bd be f2 11 3d
       -0.017038632 -0.029507903 -0.031632397 0.035631888
000390 8c f8 e5 3c 5b f3 62 3c 10 64 1c bb 5d bd 11 ba
       0.028072618 0.013851966 -0.0023863353 -0.00055595284
0003a0 64 b7 31 bd 90 d1 ef bb 1c e7 b2 3c 8b 94 51 bb
       -0.043387786 -0.007318683 0.021838717 -0.0031979408
0003b0 b9 65 ff bc 61 23 da bb 42 2c 0c 3d d2 44 13 bc
       -0.031176435 -0.0066570495 0.034221895 -0.008988576
0003c0 8d 94 c1 bc ab 3b 3c 3c 6c b4 3b 3c 57 82 dc bb
       -0.023630405 0.011488835 0.01145659 -0.006729405
0003d0 0d eb f5 bc 2a 98 78 bc 1b 0e 87 bb a8 9b 7c bb
       -0.030019308 -0.0151729975 -0.0041215545 -0.0038544927
0003e0 b4 22 82 3d 3f 45 18 3d 82 40 6a 3d 91 85 ed ba
       0.06354275 0.037175413 0.057190426 -0.0018121471
0003f0 87 27 00 bc cf d3 d3 bc d1 cb f5 3b 32 eb 01 bd
       -0.007821924 -0.025857834 0.0075011034 -0.03171844

linear_layers.0.bias f4 [7]
000000 58 c6 8a bb ca ff 04 bc d8 1f 1f bb 2c 38 ab 3b
       -0.00423507 -0.0081176255 -0.0024280455 0.005225202
000010 c7 2a 26 3b 19 e4 88 bb 27 00 ed bb
       0.0025355087 -0.004177582 -0.007232684
