files/modello_ottimo2.pth (torch, 420021 bytes, 14 tensors)

cnn_layers.0.weight f4 [16, 1, 3, 3]
00000000: b44b b2bd 7221 9bbe c619 2d3e 837b 37be
00000010: f009 60be 2fb2 633e 0bc5 d8bd 3cb0 7d3e
00000020: e2b6 913e 0774 bebb 4975 883e 5e16 39be
00000030: 8bce a9bd bc8b a73d 5b52 183e 6c38 95be
00000040: 08e2 a7be 78da 4cbe d77b 9a3d 74be 54be
00000050: 22ba f2bd a49c 91be ac61 a93e d4b7 cb3c
00000060: f622 82be 2f8c 07be 50bc 863e ddb3 e03d
00000070: b699 2c3e 18f2 73bd 5d12 213e 292a 363e
00000080: 6d5c 17be 8cd7 82be fd2b 6ebe 4f2c 91bd
00000090: 9264 11be fbd9 33be c639 e7bd 7595 4cbe
000000a0: fe47 9dbe 5b72 7fbe 7d1e 1d3d f7f3 5e3d
000000b0: a2f2 a4bd 4cd7 9c3e 89ae 773c 9831 303e
000000c0: ce23 94be 0d0a eabd cd91 0bbd 6be5 acbd
000000d0: e77e 74be f81a a3bd 1659 5abe 29a5 833e
000000e0: 98b8 2a3e 3615 3ebe b845 2abd 8a91 70be
000000f0: b9e3 393d 9248 fc3d bc36 98bd 44c4 d2bb
00000100: 0850 1cbe 3c7c 38be 2843 963e b808 a3be
00000110: 4f3e 8e3e 8137 a4be 5dc3 1b3e 692f 7abe
00000120: d59a 9fbe 50aa 383d aebc 813e f427 473e
00000130: 2011 f33d 24ec b53d c536 6ebe df87 03be
00000140: d00e 473d c7e0 8cbe a49c 64be 5172 13be
00000150: 4140 183e 1954 2bbe 2800 aebd bf8e 88be
00000160: a18f 633e 9458 46be 4f3f a63d d74f 55be
00000170: a2f7 803e d933 f93d 0a08 0dbe 0f11 163e
00000180: 305e 05bd 17ff 97be d3d5 2b3e edae 15be
00000190: f5af 853e 93d7 db3d fe06 6cbe 6547 2e3e
000001a0: 439d 90bd 77e4 1dbe 8a6b 82be 4667 0fbe
000001b0: d518 54be 14a6 eabc 57f9 9dbd aede 07be
000001c0: 875c 2a3e b015 a73d 71ee 0e3e 3d6a 39be
000001d0: d7ea 5b3e 9a56 95be f6b4 5dbe e25a 5ebd
000001e0: c2b2 a0be c271 74be 53ea eb3d ddbf ad3e
000001f0: f52b 4a3e 1125 173e c06b c43d cde4 8ebd
00000200: 0181 36bc ff82 7c3e 10ac 9a3e 5a82 453e
00000210: 0011 3abe 07ac 98be 46d8 94be 5e97 88be
00000220: b5de 1cbe bf47 973e 7680 9b3b 7fbe b6bd
00000230: 7cb6 e73d 7775 863e aa4a 913e d8b2 2e3d
-0.087058455 -0.30298954 0.16904363 -0.1791821 -0.21878791 0.2223594 -0.10584458 0.2477426
0.2845984 -0.0058121714 0.2665198 -0.18074939 -0.08291348 0.08180949 0.14875166 -0.2914461
-0.32789636 -0.20005214 0.07543152 -0.20775777 -0.11851908 -0.2843982 0.3308233 0.02486793
-0.25417298 -0.1323707 0.26315546 0.10971806 0.16855511 -0.05955705 0.15729661 0.1778952
-0.14781351 -0.25555074 -0.23258968 -0.07088529 -0.14198521 -0.17563622 -0.11290316 -0.19978888
-0.30718988 -0.24945967 0.038359154 0.05443188 -0.08054091 0.30633008 0.015117296 0.17206419
-0.28933567 -0.11427698 -0.034074593 -0.084421955 -0.23876534 -0.07964128 -0.21323046 0.25711945
0.1667198 -0.18562779 -0.041570395 -0.23493019 0.04538319 0.12318529 -0.07432315 -0.006432088
-0.15264904 -0.18016142 0.2934811 -0.3184259 0.27781913 -0.32073596 0.15211244 -0.24432148
-0.31172815 0.045084298 0.25339264 0.19448835 0.11868501 0.08882931 -0.2326308 -0.128448
0.04859811 -0.27515242 -0.22325379 -0.14399077 0.14868261 -0.167313 -0.084961236 -0.26671407
0.22222759 -0.19369727 0.08117544 -0.20831238 0.2518893 0.12168092 -0.13772598 0.14654945
-0.032560527 -0.29686806 0.16780786 -0.1461751 0.26110807 0.10734477 -0.23049542 0.17019422
-0.07061245 -0.15419184 -0.2547267 -0.1400424 -0.20712598 -0.028643645 -0.077135734 -0.1326854
0.16636859 0.081584334 0.13958146 -0.18106933 0.21476303 -0.29167634 -0.21651062 -0.05428589
-0.3138638 -0.2387152 0.11519303 0.33935443 0.19743331 0.14760233 0.09590864 -0.06977234
-0.011139155 0.24659346 0.30209398 0.19288006 -0.18170547 -0.29818746 -0.29071254 -0.26677984
-0.15319331 0.29546925 0.0047455383 -0.08923053 0.11314103 0.26261494 0.28377277 0.042651027

cnn_layers.0.bias f4 [16]
00000000: b196 193d 49ce 6abd 39ef 4c3e 9ab8 8bbd
00000010: d165 a1be d603 2dbd 3a09 ce3d 8c32 7dbe
00000020: 0f7f 833d 8666 983e e378 7a3d d6fd df3d
00000030: 92d2 80be fb9c 61be fffb 05be 9969 92bd
0.037497226 -0.057325635 0.20013131 -0.06822319 -0.31522992 -0.042239986 0.100603536 -0.24726313
0.06420719 0.2976572 0.061150443 0.10937087 -0.25160652 -0.2203254 -0.1308441 -0.071490474

cnn_layers.1.weight f4 [16]
00000000: c7d1 813f 12e7 7e3f 5fb4 813f d63f 803f
00000010: 1d88 7f3f 46f1 7e3f e43b 803f bdbb 803f
00000020: cf4f 803f 0678 7f3f 0e79 7f3f a8f0 7b3f
00000030: 47dc 7f3f d7cb 7f3f ec70 7e3f 0707 7b3f
1.0142144 0.99571335 1.013317 1.0019481 0.9981707 0.99586904 1.0018277 1.0057293
1.0024356 0.99792516 0.9979409 0.9841409 0.9994549 0.9992041 0.99391055 0.980576

cnn_layers.1.bias f4 [16]
00000000: edbe 633d 7138 9b3b e157 e83a d418 cc3b
00000010: 5683 8a3b 523f 963c 5b6b 9d3c 262a a13b
00000020: 5ebb 03bc 27f0 4d3b 35fc 7ebc f020 b9bc
00000030: 1cf9 6b3d 2187 f13c ca59 a43d 049e f63a
0.055602003 0.004736953 0.0017726385 0.0062285457 0.0042270822 0.01834074 0.01921623 0.0049183546
-0.008040277 0.003142366 -0.0155630605 -0.022598714 0.057610616 0.02948338 0.080249384 0.0018815403

cnn_layers.1.running_mean f4 [16]
00000000: 4dba 413d 76ce b3be 5784 493d c7d2 10be
00000010: b4ac 69bf fe55 64be 1c2d aa3c 907d febe
00000020: a013 d93d 10c4 48be 223a d23d 4964 f3bd
00000030: 20be 86be feef c4be 1e42 06be e127 333e
0.04729681 -0.35118455 0.049198475 -0.14142905 -0.9127915 -0.22298428 0.020773463 -0.49705172
0.10599446 -0.19606042 0.10264994 -0.11884362 -0.2631693 -0.3846435 -0.13111159 0.17495681

cnn_layers.1.running_var f4 [16]
00000000: 088c 373c d5f6 ca3c 0dce 0f3c fb61 d03b
00000010: 6cf5 9a3d 9651 4b3c ff29 6b3b 3865 703c
00000020: adf9 af3b 7d39 583d 48ac 893b f900 8a3c
00000030: 7b20 3b3b cf71 913c 469f e53b ec69 973c
0.01120282 0.024775902 0.008777154 0.0063593364 0.07566342 0.012409588 0.0035883186 0.01467257
0.00537034 0.0527892 0.0042014457 0.016846167 0.0028553295 0.017754463 0.0070075123 0.018483125

cnn_layers.4.weight f4 [32, 16, 3, 3]
00000000: 94de 39bd 3a36 833d 33ac a0bb 0427 603d
00000010: 31c6 5c3c 50f5 8b3d 9565 abbc 37d7 7cbd
00000020: 65d9 3ebd d214 873c 2017 25bd 147b 203d
00000030: d130 063d 9bc3 d23c 5102 803d 3a1c 473c
00000040: 9afb a63d 461b 773b ee0a 1dbd efe3 e9bb
00000050: 03ee 743c 78df bfbb c52b 513d 306c 293d
00000060: 29dc 99bd f35d 823d 0094 ac3b b5a5 75bb
00000070: f168 de3c 8725 9bbb c7af 603d 3cdf aa3d
00000080: ad69 013b 0ba3 ac3d df3e a3bd 5402 743d
00000090: dfc0 743d 9c08 a1bd cd3c 86bd 54d8 623c
000000a0: 94fb 87bd 7049 0b3d de59 323d d925 723d
000000b0: 5e54 84bd d6ce d1bc 8eff f23b 932b 60bc
000000c0: 7a33 95bd 1f54 73bd fd93 943d 11c5 e73b
000000d0: 3f3a 94bc c553 8b3b 3d8f 163d 43c9 243b
000000e0: 2f67 063d 4293 1c3d 9c14 9fbd 1b82 14bc
000000f0: 1bd1 c2bd ebc0 80bc 1551 333c 4891 533d
00000100: 87ec 8bbd b866 5a3d c617 3b3d ed03 a43c
00000110: 9f89 3abd f238 44bd fa63 1cbc 8d55 12bd
00000120: cc44 363d feab c63a 1f0e 3bbd 127e 933d
00000130: cd7c 00b8 6d09 87bd b5ae 42bd 3a0b 0e3d
00000140: 2f13 2dbd b048 a8bc 78d7 e9bc 05c2 833d
00000150: e26a 003d 1527 09bc 0341 84bd 707e 3c3c
00000160: 1b3a 963d f2b0 a13b 72fa 0cbd 4518 59bd
00000170: 41c0 8c3d 2b17 16bd 386b 21bd 7511 2fbb
00000180: f9ef 353c bd55 12bd f79a 47bd 1788 373c
00000190: aaea 9bbc db12 01b9 e1c6 0b3c 1be1 80bd
000001a0: 0869 81bd 2059 07bd e536 603d aca1 8ebc
000001b0: ec08 283d 4180 28bd 9a6f 4e3d 32dc 413d
000001c0: 3aa2 b6bc 25c6 b73c 061f 9a3d 6ee1 193d
000001d0: b7fe bebc 96c4 0a3d e65c 253c 8f3e 9cbd
000001e0: 9091 263d e810 7b3d 8116 51bd 4b9e 5c3d
000001f0: dbdb 92bd 06df 87bd 334a 673d a422 503d
00000200: 9d5b 54bc 1995 cb3c 84ea 573c a36c 2a3d
00000210: 4e38 da3c 7102 cebc 4e76 95bd 274f 803d
00000220: 0363 85bc 0a31 10bd ea5f b03d 6f2a cb3c
00000230: 44ae 9abd ec72 123c 816a 323d d617 0bbd
00000240: 982e eb39 7d64 76bd 78df 66bd 4c9f aebd
00000250: c76e 5dbc 34f2 35bc d93f 433d 5ccf 863c
00000260: 4749 81bd c3fc a23d 1ba1 67bd 8588 743c
00000270: 074d 67bc 080d f2bc cd3e 8fbd c925 8ebd
00000280: d49a bbbc a65a 20bd 6d4d 62bd 6657 6d3d
00000290: fec5 a7bd d3a2 83bd 325c 953c cf49 bfbc
000002a0: 0813 f03c a712 cfbd 8499 04bb b7ec f0bb
000002b0: 91e9 213d 3281 dabc b2af 3abc d01b 34bd
000002c0: 5a98 9fbd 20f9 abbd 1b53 a13c c8bc d63c
000002d0: ad08 ecbc 9dc8 7d3d e616 75bd 37d1 96bd
000002e0: 5c6a 273d 0520 263d 2efd 3f3d 23a6 94bc
000002f0: 5fa9 89bd 537c 17bc 5d3b 883d fd78 883d
00000300: 9877 e63c ecd0 753c 9a20 ddbc f566 8f3d
00000310: 0683 773d f068 093d ba42 203d 4a77 f93c
00000320: a810 ffbc ef1a 813d 2c90 263d 1412 dd3c
00000330: 8506 a4bd da77 2b3d 06fe 183d 461b 823c
00000340: aa1c a5bd 84fc 133d 2b42 b33c f19c 5bbb
00000350: 119e bfbd 52e7 8fbd 7729 6ebd 8887 293c
00000360: 7d7b 7cbd 3a43 203d c697 9e3d 95c3 a83d
00000370: 18d9 52bd d729 fa3c 2c4c 4dbd 6c71 c93c
00000380: b589 0fbd 16b9 813d e709 c63c 64b7 9b3d
00000390: 184a 913d ae48 f83c b66f 883c d4a6 19bd
000003a0: 43e3 b8ba ddd8 11bd 42cd a1bd f226 403c
000003b0: dda0 643d c266 2e3d 4500 1dbd 84b8 573d
000003c0: 410a 80bc 4fac 9c3d 374f 883d 42ae af3d
000003d0: 7175 c3bc 3a5a 9c3d 7409 e7bc 1a21 643d
000003e0: eafd 3a3d c93c 9c3d 70eb 97bd a152 da3c
000003f0: c8f9 933c f15c 60bd 8788 91bd 9792 0bbd
-0.045378283 0.06406827 -0.0049033402 0.05472471 0.013474987 0.06833899 -0.020922462 -0.061728682
-0.046594042 0.01648942 -0.040305257 0.039179876 0.0327614 0.025728038 0.06250442 0.012152726
0.08153458 0.0037705465 -0.0383405 -0.0071377675 0.014949325 -0.005855497 0.051067133 0.04136294
-0.07512695 0.06365576 0.0052666664 -0.0037482802 0.02714965 -0.004734698 0.054855134 0.0834336
0.0019746826 0.084295355 -0.07970976 0.059572533 0.05975425 -0.0786297 -0.065545656 0.013845522
-0.066397816 0.034005582 0.043542735 0.059118126 -0.06461404 -0.025611322 0.0074157184 -0.013682264
-0.07285209 -0.059406396 0.07254789 0.0070730527 -0.01809418 0.0042519295 0.036757696 0.0025144375
0.032813247 0.038226373 -0.07767603 -0.009064223 -0.0951254 -0.01571699 0.010944624 0.051652223
-0.068322234 0.053320616 0.04567697 0.020021403 -0.045541402 -0.04790587 -0.009545321 -0.03572612
0.044499204 0.0015157459 -0.045667764 0.072017804 -3.0633808e-05 -0.06593595 -0.047529895 0.034678675
-0.042254623 -0.020542473 -0.028545126 0.06433491 0.03135193 -0.008371134 -0.064577125 0.011504754
0.073353015 0.0049344236 -0.03441853 -0.05300166 0.06872607 -0.03664319 -0.039408892 -0.0026713286
0.011104577 -0.035726298 -0.04873177 0.01120188 -0.019032795 -0.00012309423 0.008531303 -0.062929355
-0.06318861 -0.03304398 0.05473985 -0.017411076 0.041024134 -0.041137937 0.0503994 0.047329135
-0.022294153 0.02243335 0.075254485 0.037568502 -0.023314817 0.033878885 0.0100929495 -0.076291196
0.040666163 0.06129542 -0.051046852 0.053861897 -0.0717084 -0.06634335 0.056467246 0.050814286
-0.012961295 0.024851369 0.0131784715 0.04160751 0.026638176 -0.025147649 -0.072979555 0.06265097
-0.016282564 -0.035203017 0.08612044 0.024800507 -0.0755277 0.008938532 0.0435586 -0.03395828
0.00044857408 -0.060154427 -0.05636546 -0.08526477 -0.013515181 -0.011105109 0.04766831 0.016456299
-0.06312805 0.07958367 -0.056550127 0.014925127 -0.014117486 -0.02954723 -0.069944 -0.06940801
-0.022900976 -0.03914895 -0.05524962 0.057944678 -0.08192061 -0.06427541 0.018232439 -0.023350624
0.02930595 -0.101109795 -0.0020233104 -0.0073524374 0.039529387 -0.026672933 -0.011394428 -0.043971837
-0.07792731 -0.08397126 0.019692948 0.026213065 -0.02881273 0.061958898 -0.05983629 -0.07364123
0.040872917 0.04055788 0.04687231 -0.018145626 -0.06721758 -0.00924595 0.06651948 0.06663702
0.028133199 0.015003424 -0.026993085 0.07002059 0.060427688 0.03354734 0.039126135 0.03045239
-0.031135872 0.06303965 0.040664837 0.02698616 -0.08009056 0.041862346 0.03735163 0.015882146
-0.08062108 0.03612949 0.021882137 -0.0033510292 -0.09356321 -0.07026543 -0.058145013 0.010347255
-0.061641205 0.039126612 0.07743792 0.08240429 -0.051476568 0.030537529 -0.05012147 0.024590217
-0.035043437 0.063341305 0.024174644 0.07603338 0.070942104 0.030308094 0.01665483 -0.037512615
-0.0014105815 -0.035607208 -0.07900478 0.011728035 0.055817474 0.042578466 -0.038330335 0.052666202
-0.01562989 0.07650053 0.06655734 0.08578159 -0.023859711 0.07634397 -0.02820275 0.05569563
0.045652308 0.07628781 -0.07417953 0.026650729 0.01806344 -0.054776136 -0.07106119 -0.034075346

cnn_layers.4.bias f4 [32]
00000000: 47c9 bcbd d2cf 2b3c 149f 903d cd88 08bd
00000010: d5ec 813d b674 16bc 46c6 4f3d 08bc 303d
00000020: 7a2c 283c fbed 933d 3262 203d 03d6 153d
00000030: c718 1f3c 6dd1 5fbd 3c46 cd3c 345e 2fbc
00000040: ee22 4bbd 5dc0 f83c 28eb 5c3b 72f2 153d
00000050: adf9 553d 9b1c be3b bf1f 233b 0c37 4f3d
00000060: 0ded 02bd fb67 7e3d 8019 0f3c 8633 4f3b
00000070: 9133 863c 3c6e b3bd 3313 0c3c aa14 53bc
-0.09218078 0.01048656 0.07061592 -0.03333359 0.06344 -0.0091830995 0.050726198 0.04314807
0.01026451 0.072231255 0.039156146 0.03658105 0.009710497 -0.054643083 0.025057904 -0.010703612
-0.04959386 0.030365163 0.00337095 0.036608167 0.052240063 0.00580175 0.0024890748 0.050589606
-0.03196435 0.062110882 0.008734107 0.0031616404 0.01638201 -0.0876126 0.008549499 -0.012883345

cnn_layers.5.weight f4 [32]
00000000: 3c3a 8b3f 04b0 903f ae1c 8a3f 335c 873f
00000010: 9629 893f 1947 883f 04d0 873f b938 893f
00000020: 2773 8c3f 65e1 8b3f 4d59 8a3f 9f52 903f
00000030: 831c 8d3f bfcf 8e3f 82a8 8a3f b2d0 8a3f
00000040: b58e 923f b026 8b3f 90e2 903f 4885 8e3f
00000050: e145 8d3f 2ad5 8a3f ebfc 8a3f 51a4 883f
00000060: 1db9 8c3f 7d04 883f 9327 8c3f adf3 8c3f
00000070: b87a 8b3f cfc2 883f 2ff2 8e3f 4e08 8c3f
1.0877147 1.1303716 1.0790002 1.0575012 1.0715816 1.0646697 1.0610356 1.0720435
1.0972642 1.092816 1.0808502 1.1275214 1.1024326 1.1157149 1.0832675 1.0844939
1.1449801 1.0871181 1.1319141 1.1134424 1.103695 1.0846303 1.0858434 1.0675145
1.0993992 1.062637 1.0949577 1.1011864 1.0896826 1.0684451 1.1167659 1.0940034

cnn_layers.5.bias f4 [32]
00000000: 37e8 81bc e206 ad3c 63ee f13b e566 f7bb
00000010: ca27 5e3c 5251 12ba d9e9 fdbb db86 af3b
00000020: d27d 473c bebc 373c 081b 923c 1d76 933b
00000030: 5eeb b73c 92f6 843c 7c4d 2b3c 2ad9 ac3b
00000040: 3677 673d bc85 0c3c 8e77 e53b dc91 b33c
00000050: 4c71 f33c ac0f 433c f35e a93c 84e5 be3a
00000060: c03b 3f3c 8ac3 633c e00f 823c 65c2 983c
00000070: 4c60 323c b140 ba3a 9739 b43c 2079 23ba
-0.015857799 0.021121446 0.0073831542 -0.007550108 0.013559291 -0.00055815757 -0.007748824 0.005356652
0.012175994 0.011214433 0.017835155 0.004500164 0.022451099 0.016230855 0.010455485 0.0052749114
0.056510173 0.008576807 0.0070027774 0.021920137 0.02971711 0.011905592 0.020675158 0.0014564251
0.01167196 0.013901601 0.01587671 0.018647382 0.010887217 0.0014209953 0.022000117 -0.00062360056

cnn_layers.5.running_mean f4 [32]
00000000: 2be6 583d 94c4 403d d82c 49bd f79c 123e
00000010: c67e 4d3c 4b53 2d3d bb4e b23e 3b99 8d3d
00000020: f382 cdbc 1e7d b73d 1d2c 66bd 583a babd
00000030: be39 983d 5dc8 0abe fd38 123e 3f04 6f3c
00000040: 7f1b 68bc 2e72 1dbf bb58 93bd 6ffa bd3b
00000050: 41c4 c53d 096c bdbe 45df 3c3d d62a 45bd
00000060: d903 363d 8210 663e a87f f1bc 5e8f a53d
00000070: 8d3a f83c db73 5b3e e2b0 3abd bf30 f0bd
0.05295388 0.04706247 -0.049115032 0.1431769 0.012542432 0.042315762 0.34825692 0.06913992
-0.025086856 0.08959411 -0.056194413 -0.090931594 0.074328884 -0.13552995 0.14279552 0.014588415
-0.014166712 -0.6150235 -0.07194658 0.0057976763 0.09656573 -0.36996487 0.046111364 -0.048136555
0.044437263 0.22467235 -0.029479817 0.08083986 0.030301357 0.21430914 -0.045578845 -0.117280476

cnn_layers.5.running_var f4 [32]
00000000: 9050 623d 0d8c 773d 7dfb 263d 89c9 3b3e
00000010: 48b3 3d3d 317c 633d 41a3 b23d 5c77 a43c
00000020: 56b4 3c3d 017e 1e3d e15d 653d cf64 4c3d
00000030: 164a 423d 8fce 253d 5290 123d fbfa 613d
00000040: b22e e73c afc6 463e 025a 0f3d 5137 263d
00000050: 8d1a 873c ed2a 6f3e 9628 bf3c 22bd 013e
00000060: a0b6 9b3c fe02 0a3e c5b6 143d 044a 0d3d
00000070: 2fed 3e3d 9358 8f3d edc4 0e3d 5825 913d
0.05525261 0.060436297 0.04076718 0.18338598 0.046313554 0.05553836 0.087225445 0.020076446
0.04607042 0.038694385 0.055997733 0.049900826 0.047433935 0.040480193 0.035782166 0.055170994
0.028220508 0.1941173 0.034997948 0.040580098 0.016492153 0.23356219 0.023334783 0.12669805
0.01900798 0.13477704 0.036307115 0.034494415 0.046612915 0.06999316 0.03485577 0.07087201

linear_layers.0.weight f4 [7, 14112]
00000000: 8494 8bbb 8744 6abc dd0d 31bc b3de df3a
00000010: 1b2d 3c3a 918f 5cbb e121 52bc 8f44 38bc
00000020: 8299 3cbc 4744 8b3a 1093 ae3b 5c51 3ebc
00000030: b584 30bc 012c 9fbb e785 4b3c 437b 863b
00000040: 8631 a83b 1cc0 17bc 1fa6 e43b 4085 063b
00000050: e42c 493c a519 043a 0892 b9bb 1063 e4bb
00000060: 8984 273c e299 a8ba 7de7 59bb e468 eeba
00000070: a60b ebba 77b2 7f3b ff77 4a3a 4147 973b
00000080: 67b6 ac39 48ab 9dbc ae68 84bb 62cf ec3b
00000090: 48ba 773c 72f0 b23b ff45 61bb a761 6b3b
000000a0: 6386 aa3b bd4f 713a d70a 603b ff06 de3b
000000b0: b24a 73bb 58a5 dd3b ed79 90bb 56f8 af3b
000000c0: 36ef 63bb a24d 2f3a f753 8c3b 99d3 003b
000000d0: 7082 4f3c 688c f6bb 27da 1bbb cabf 9f3b
000000e0: 1afc 513b 06a1 e8bb fcec 48bc fede f13a
000000f0: 8503 b23b 1626 0cbc f410 e9ba b215 62bb
00000100: 5f8b 9d3a 3f33 913a 4bba a3bb 564a 5cbc
00000110: 9076 69bc eaea ef3a 4328 acba 6c96 92bb
00000120: 874c 743c 8217 7e3c 735d 32bc a3df 3fbc
00000130: cd06 a43b 0f7d f53b a357 f7b9 7f35 3c3c
00000140: d776 8e3c 49fb 483c 67e9 33ba 22a1 c1ba
00000150: 49ff e5bb dcf7 adbb e30d 1abc d9d8 75bc
00000160: 6b49 2fbc 8d12 3bbc 2a3c 94bb d970 85bc
00000170: e81e 003c 9861 b03c 1baa 843c 5778 1c3b
00000180: ff85 87bb 1d2c 903b 9dcc 753c 7b77 fd3b
00000190: 2627 7abb 6f1b f83b f673 023c 29f8 053b
000001a0: 8649 0ebc eb49 56ba 29b9 263a 6747 2abc
000001b0: 36bd e9bb 3527 84ba 25bf e6bb 9046 69bc
000001c0: bcd8 c9bb 9b4b debb 3ab0 243c 9ae8 693c
000001d0: 7bc6 a13b 0b3f ca3b d894 3b3c 870b 4d3c
000001e0: 5ff0 e1bb aa29 09ba 6bf8 293a a261 99bb
000001f0: fa4b eebb 03cd 20bc 4db9 483b 75ad 23bc
00000200: f876 6f3c e90c a53a d3ba 753b 953e 953b
00000210: 97c7 4bbc 1e95 183c 8a20 e4bb f187 ee3b
00000220: a461 f2ba 3267 0a3c 3abe 053c c3fd 8d3c
00000230: 4ff6 973b a056 de3a 5527 8ab8 9494 bd3b
00000240: 2b5d 223c 0077 8dbb e463 f8bb 9b6b 0a3a
00000250: b3e0 333b 0f38 fabb 4e46 593c 8346 d7ba
00000260: d704 233b 3f31 c9ba 3a05 e83a 94d4 673c
00000270: 20a4 723c 9bcc 523c f832 163b 15f2 b43c
00000280: 8bce b53c 05a7 fc3b 7cb0 c13b 0d34 c93b
00000290: 60d2 8d3b 7717 0f3c 2a0a 3bb7 e18b cf3a
000002a0: 4d12 0bb9 3eb9 4cbb 01b0 81bc 0ae8 21b9
000002b0: 6e88 e8bb 3226 bf39 54d4 32bb 5e80 a73b
000002c0: 61ae e13b fe7b 953c a3a4 913c b24a 4c3c
000002d0: 2576 393c c013 833c 1e96 0dbc b379 fb3b
000002e0: d557 3a3b 5767 a139 fffc 9f3a c18b abbb
000002f0: 2ddf 3ebc 9aba df3a 9dea fa3b b0e8 63bb
00000300: 4569 edbb 73f6 63bc 7bc5 29bc 2c9d 83bc
00000310: 4b22 c7bb 33c8 a33b 2b07 4f3c fd99 db3b
00000320: e4a6 913b 58ac 873c 2364 b83a 1efa bbbc
00000330: 806d 7dbb 3050 adbc 258d 52bc 1985 3cbc
00000340: 95bf 623b d368 a7bb be24 df3a 5c77 dfbb
00000350: e4f0 31b9 f4df 9fba 0397 1f3b de95 8abb
00000360: c999 62bc a3f3 93bb 59af a9bb a72b 143c
00000370: 8908 fa3a c01a 02ba 8139 953a 3daa e0b9
00000380: 3657 43bc 3438 92bb cb81 dabb e313 05bc
00000390: 2414 253b 51be 6cbb 6d41 e03b 3bba 2d3b
000003a0: ff2d 9cbc db8f 31bc 6136 5dbb d975 573b
000003b0: a348 9bba b816 3dbc f311 2eba c811 bfba
000003c0: 4a55 32b9 9b98 66bc 47f9 01bb 5076 d13b
000003d0: 28b7 d43b 216e 143c 10ec 2b3b 1866 f2bb
000003e0: 72e0 a6ba 4859 283b d94f 58bc a8a0 6bbb
000003f0: 6d28 dabb 8b9c c3bb 581d 06bc affe 02bc
-0.004259648 -0.014298565 -0.010806528 0.0017079919 0.0007178352 -0.0033654908 -0.01282546 -0.011246814
-0.0115112085 0.0010625207 0.00532759 -0.011616077 -0.010773827 -0.0048575406 0.0124220615 0.0041040494
0.005132857 -0.009262111 0.006977811 0.00205262 0.012278769 0.0005039222 -0.0056631602 -0.006969817
0.01022447 -0.0012863243 -0.003324955 -0.0018189219 -0.0017932549 0.0039016285 0.0007723569 0.0046166484
0.00032942297 -0.019246712 -0.004040799 0.0072268704 0.0151200965 0.005460792 -0.0034373996 0.003591636
0.0052040084 0.00092053023 0.0034186149 0.0067757363 -0.003712338 0.0067640953 -0.004409066 0.00537018
-0.0034780032 0.00066872884 0.0042824703 0.0019657372 0.012665376 -0.007524062 -0.0023781152 0.004875158
0.0032041133 -0.0070992736 -0.012263533 0.0018453298 0.0054325485 -0.008554002 -0.0017781542 -0.0034497795
0.0012019685 0.0011077895 -0.004996573 -0.013445457 -0.014249459 0.0018304263 -0.0013134558 -0.004473498
0.014910824 0.015508534 -0.010886538 -0.011711034 0.0050056935 0.007491715 -0.00047176806 0.011487364
0.017390652 0.012266942 -0.0006863088 -0.0014772753 -0.0070189578 -0.005309088 -0.009402725 -0.015005314
-0.010698657 -0.011417997 -0.0045237737 -0.016289162 0.007819869 0.021530911 0.016194394 0.002387544
-0.0041358466 0.00439979 0.015002397 0.0077351904 -0.0038170307 0.0075716297 0.007962218 0.0020442104
-0.008684522 -0.0008174467 0.00063599885 -0.010393 -0.0071331514 -0.0010082485 -0.007041829 -0.014238015
-0.00615987 -0.006783915 0.010051781 0.014276648 0.004936991 0.006172066 0.011449061 0.012514955
-0.0068951095 -0.00052323437 0.00064838555 -0.004680828 -0.0072722407 -0.009814504 0.0030628026 -0.009990086
0.014615767 0.0012592349 0.003749539 0.0045545795 -0.012437723 0.009312896 -0.006961887 0.007279389
-0.0018492234 0.008447455 0.008163029 0.017332917 0.0046375166 0.0016963072 -6.587679e-05 0.005785534
0.009909908 -0.0043171644 -0.0075802673 0.00052803167 0.0027447164 -0.0076360772 0.013261391 -0.0016424212
0.002487471 -0.001534976 0.0017701753 0.014149804 0.014809638 0.012866165 0.0022918563 0.02208809
0.022193214 0.00771034 0.005910931 0.006140238 0.004328057 0.008733622 -1.1148435e-05 0.0015834534
-0.0001326289 -0.0031238343 -0.015830996 -0.00015440598 -0.007096342 0.00036458817 -0.0027287202 0.005111738
0.0068872427 0.0182476 0.0177787 0.012468981 0.011319672 0.016000628 -0.008641748 0.00767442
0.00284337 0.00030785307 0.0012206136 -0.005235166 -0.011649889 0.0017069161 0.0076573626 -0.0034776144
-0.007245215 -0.013913739 -0.010362024 -0.016066156 -0.006077086 0.004998231 0.012635986 0.0067017064
0.0044449437 0.016561672 0.0014067929 -0.022946414 -0.0038670003 -0.0211564 -0.012851034 -0.011506342
0.0034599055 -0.0051089316 0.00170245 -0.0068196487 -0.00016969774 -0.001219748 0.0024351485 -0.0042292913
-0.013830611 -0.0045151277 -0.005178374 0.009043611 0.001907603 -0.00049630925 0.0011384935 -0.00042851447
-0.011922648 -0.0044622663 -0.0066683046 -0.008122417 0.0025189007 -0.003612418 0.006843737 0.0026508707
-0.019064901 -0.0108375205 -0.0033754336 0.003287664 -0.0011847209 -0.011541061 -0.0006640248 -0.0014577443
-0.00017007175 -0.01407447 -0.0019832419 0.006392278 0.0064915605 0.00905946 0.0026233234 -0.0073974244
-0.0012731685 0.0025687981 -0.013202631 -0.0035953913 -0.006657651 -0.005969589 -0.008185707 -0.007995292

linear_layers.0.bias f4 [7]
00000000: 30fb cbbb 62fe 4a3c 4095 a13a e800 78bb
00000010: 3375 d73a 0cf3 5a3a 4487 78bb
-0.0062250122 0.012389751 0.0012327805 -0.0037842337 0.0016438126 0.0008352257 -0.0037922421
