files/saved_state_of_model.pth (torch, 419829 bytes, 14 tensors)

cnn_layers.0.weight f4 [16, 1, 3, 3]
000000 e7 92 82 be 00 33 89 3d 00 bb 99 3d e8 92 91 be
       -0.25502703 0.066991806 0.075063705 -0.28432393
000010 a8 25 86 3e 71 36 ac 3c 33 1a 9d be 13 ef 8e bd
       0.26200604 0.021022053 -0.3068405 -0.069791935
000020 49 22 93 3e 57 0c 8e be be af 1f be 39 30 37 3d
       0.28737095 -0.2774379 -0.15594384 0.044723723
000030 48 02 81 3e 8c 42 ff 3d 29 a4 34 be 65 64 6b 3d
       0.25197053 0.12463865 -0.17640747 0.05746879
000040 4f af 98 bd fa 90 46 3e b3 b3 d1 bd 32 f1 9a be
       -0.074553125 0.19391242 -0.10239353 -0.30262142
000050 4f 08 1f 3e 2b dc 2e 3e 43 91 e9 3c e2 f9 b6 be
       0.15530513 0.17076175 0.028511649 -0.3573752
000060 57 34 5d 3e 3f 98 d0 3c 5e ff 4b 3e a3 af 15 bc
       0.21601997 0.025463222 0.19921634 -0.009136113
000070 61 16 3a 3e 84 80 75 3d a6 93 a8 be 1b 9f 80 3e
       0.181726 0.059937015 -0.32925147 0.25121388
000080 e1 5c c8 3d b8 30 80 be 5c 91 82 be 01 b4 79 3e
       0.0978334 -0.2503717 -0.25501525 0.24385072
000090 55 f3 02 be de d6 a3 be 1f 90 ba 3d 86 bf 54 be
       -0.12788136 -0.31999868 0.0910952 -0.20776185
0000a0 8a c2 e9 bc 72 7a b5 3d 65 15 3d 3d 99 b8 45 3e
       -0.028535146 0.08861245 0.04616298 0.193087
0000b0 da b2 9b 3e 6c 5b 44 bc 85 f0 06 be 7f be 12 3b
       0.3040989 -0.011984687 -0.13177688 0.0022391377
0000c0 29 88 31 bd 05 5d e8 bd 01 66 8f 3c 23 db 89 3e
       -0.043342743 -0.11345867 0.017504694 0.26925
0000d0 99 22 80 3e 40 04 5a 3e bd 5c d9 bd 05 c9 9e 3e
       0.25026396 0.21290684 -0.106133915 0.3101274
0000e0 93 2a ad 3e 8e 26 29 be 23 56 42 3e b7 77 44 be
       0.33821544 -0.16518614 0.18978171 -0.19186293
0000f0 93 c8 9b be 93 b4 88 be b7 4e 83 be ba c6 3a bd
       -0.30426463 -0.26700267 -0.25645992 -0.045599677
000100 ae f6 80 3d c1 b7 6d 3e 9d 12 8f 3e 54 c6 45 3c
       0.062970504 0.23214628 0.27943888 0.012071211
000110 e6 76 6e bc d0 c4 03 3d cc 1c a0 be 12 ac 58 be
       -0.014554715 0.032170117 -0.3127197 -0.2115939
000120 d6 53 91 3e 99 e4 1c 3d bc 13 98 be d1 53 f3 bd
       0.28384274 0.038303945 -0.29702556 -0.11881221
000130 51 47 99 be 86 94 39 3e 9e f4 38 3d a9 93 32 be
       -0.29937223 0.18123063 0.04515516 -0.1743914
000140 ed d9 ad 3e 69 ab cd 3d 6d b5 9e 3d 54 80 07 be
       0.33955327 0.100424595 0.07749448 -0.13232547
000150 fe 36 20 be d5 de 9b 3e 02 15 fc bd 85 b4 86 be
       -0.15645978 0.30443445 -0.123086944 -0.263096
000160 2d 33 2b be 10 4c f2 3d 59 4d 8b be 26 66 90 3e
       -0.16718741 0.11830914 -0.2720745 0.28202933
000170 04 e3 aa bd 34 3d 78 3e 88 08 19 3e da 9d 81 be
       -0.08344081 0.24242097 0.1494466 -0.25315744
000180 4b 50 ad 3d 4d 2a 83 3e 81 f0 07 be 99 f6 96 be
       0.0846258 0.2561821 -0.13275339 -0.29485014
000190 24 bd 96 be f0 34 cc bd 59 83 8c 3e c5 8d 29 3e
       -0.29441178 -0.099710345 0.2744396 0.16557987
0001a0 e2 75 8c 3e 8d 26 c8 bd 7c 59 15 3e b7 71 57 3e
       0.27433687 -0.09772978 0.14584917 0.21039473
0001b0 6f 75 b7 3d de 47 d9 bc 9a 06 35 be da 10 50 3a
       0.089579456 -0.026523527 -0.176783 0.00079370814
0001c0 80 e9 f6 bc e5 ae 01 3e e9 76 9e 3e fe 03 a1 bd
       -0.030140638 0.12664373 0.30950096 -0.078620896
0001d0 d4 1e 59 be b8 4e 47 be b0 6f ed bd a4 de 4c 3c
       -0.21203166 -0.19463623 -0.11593568 0.012504254
0001e0 db 1f 53 3d ed 08 0a 3e 59 b5 db bd 8d 31 1f be
       0.05154405 0.13479967 -0.10727949 -0.15546246
0001f0 d8 13 7f 3e 18 d4 12 be 85 d0 d7 bc 2e bf 81 3d
       0.24909914 -0.1433872 -0.026344547 0.06335293
000200 ab 5f 68 be 2f cb b7 3d 07 37 85 3e 99 1f 34 3e
       -0.22692744 0.08974301 0.26018545 0.17590179
000210 50 b0 9b bd 5d 91 ad be ec 54 a5 3d a7 cd 3c 3c
       -0.07601988 -0.33899966 0.08072838 0.011523641
000220 69 69 75 be cd a7 12 3e b5 04 8b 3e f0 20 69 bd
       -0.23965992 0.14321823 0.2715203 -0.056916177
000230 65 fd 86 3e ba be 8a be b2 e2 76 bd 28 08 71 be
       0.263652 -0.27098638 -0.060274787 -0.23538268

cnn_layers.0.bias f4 [16]
000000 83 34 0d 3e 52 8a 48 3c 98 95 3e bd d7 a0 2f 3e
       0.13789563 0.012240009 -0.046529382 0.171512
000010 81 36 98 be d0 06 72 3e 5d c8 9b 3c 75 49 a0 bc
       -0.29729083 0.23635411 0.01901644 -0.019566277
000020 ac c6 87 bd ff 28 88 bd 86 89 ba bd f7 20 70 be
       -0.066296905 -0.066484444 -0.09108262 -0.23450075
000030 1a 09 4c 3e b1 9f 01 bd bd 3b 1f 3e 3b a6 e2 bd
       0.19925347 -0.031646434 0.15550132 -0.11066862

cnn_layers.2.weight f4 [16]
000000 c5 46 66 3f cf 17 78 3f c0 f4 6b 3f 44 06 75 3f
       0.89951736 0.9691133 0.92170334 0.95712686
000010 10 51 94 3f 9c 0f 37 3f 3e a6 88 3f 24 09 66 3f
       1.1587238 0.71508193 1.0675733 0.898577
000020 ab 72 82 3f 27 15 82 3f eb fd 46 3f 5b 2e 6c 3f
       1.0191244 1.0162705 0.777312 0.9225823
000030 32 9a 63 3f b0 d6 85 3f c6 c0 50 3f 5e 73 c1 3f
       0.8890716 1.0456142 0.8154415 1.5113332

cnn_layers.2.bias f4 [16]
000000 01 cd 24 be 7c 51 d8 bd 8e 81 83 bc 22 fa a1 be
       -0.16093828 -0.10562417 -0.016052987 -0.3163615
000010 ed 2b 6b 3d 43 9d 5e be f9 ff c2 3d 92 9b 4d be
       0.057414938 -0.21739678 0.09521479 -0.20078877
000020 c4 26 01 3d 2c e9 aa 3c 6f 2d 4e be 1d b4 68 3c
       0.03153111 0.020863138 -0.20134519 0.014203099
000030 f1 eb aa be 2e 15 b1 3c 5d d7 88 be af d1 07 3e
       -0.33383134 0.021616545 -0.2672681 0.13263582

cnn_layers.2.running_mean f4 [16]
000000 21 11 81 3d 79 11 92 3c d6 82 11 3c 1b 2c 2f 3e
       0.06302095 0.017830597 0.008881291 0.17106669
000010 82 b0 04 3a ba 63 e7 3e c9 61 10 3c a2 13 a8 3c
       0.0005061702 0.45193273 0.008812376 0.020517174
000020 bd 0f 07 3b 93 fa 70 39 31 e1 86 3d eb c8 52 3c
       0.0020608746 0.0002298153 0.065859206 0.012865285
000030 04 20 4e 3e bd 11 62 39 48 fd 25 3e 35 99 f0 3a
       0.201294 0.00021559648 0.162099 0.0018356206

cnn_layers.2.running_var f4 [16]
000000 cc aa 08 3c 1d 91 bc 3a 24 30 63 3a 0c 82 00 3c
       0.008341502 0.0014386509 0.00086665363 0.007843506
000010 ed c3 32 38 77 25 86 3c 12 55 c9 3a 94 c4 18 3b
       4.2620977e-05 0.016375287 0.0015360436 0.002331053
000020 3b b5 32 39 38 b2 8a 37 21 f0 ae 3b f1 e9 3e 3b
       0.00017042916 1.6533872e-05 0.005338684 0.002913114
000030 f4 f4 36 3b a4 5d 8e 37 32 24 eb 3a ca c1 9d 39
       0.0027917 1.6971324e-05 0.0017939864 0.00030089758

cnn_layers.5.weight f4 [32, 16, 3, 3]
000000 f0 e9 26 bd 6b ce 10 3c 24 bc 1c ba a8 91 9d bc
       -0.040750444 0.008838276 -0.0005978963 -0.019234493
000010 16 1b 49 bc 35 08 15 3d 78 71 42 3c d1 82 27 bc
       -0.012274524 0.03638478 0.011867873 -0.01022406
000020 86 51 f8 3c 94 ee 86 bd 86 eb 03 be 7a 76 1d be
       0.03031231 -0.06588474 -0.12882814 -0.15377226
000030 da f0 01 be 33 b3 9e bd 51 33 ab bd fd bc 80 bd
       -0.12689534 -0.07749023 -0.08359397 -0.06286047
000040 80 fe 12 be 1f 56 f4 bd f2 6e b7 bd 45 30 6e bd
       -0.14354897 -0.11930489 -0.08956708 -0.058151502
000050 4f 6a 37 bd 9d 8a 1b bc 1b 02 1c bd e6 ad 25 bc
       -0.04477912 -0.009493497 -0.038087945 -0.010112261
000060 62 59 2e bd 6e e8 e1 bd de b2 5d bd 66 5c e5 3b
       -0.04256571 -0.110306606 -0.05412566 0.00699954
000070 a0 40 0d 3d 4d 36 11 3d 60 01 8a 3b ef 34 07 3d
       0.03448546 0.035452176 0.0042115897 0.033009466
000080 9f 5c 0e 3d ee aa df 3c e4 cb 39 3d 6e 30 4f 3c
       0.0347563 0.027303185 0.04536046 0.012645824
000090 b1 70 55 3c 78 04 b7 bd ac 74 86 3d 2d 42 da bc
       0.013027356 -0.08936399 0.06565222 -0.026642883
0000a0 9c 5a aa 38 b7 6f 6b 3c b3 d3 e9 bd e2 3e 60 bd
       8.123109e-05 0.014369897 -0.114173315 -0.05474747
0000b0 83 11 24 bd fc 04 ae 3a 3f c0 76 bc 74 ff e7 3b
       -0.040055763 0.0013276632 -0.0150604835 0.007080013
0000c0 7a 7d d0 bb e6 25 21 bd 8e c3 5b bc 9a 88 03 bd
       -0.006362614 -0.039342783 -0.013413323 -0.032112695
0000d0 28 f5 f3 bc 06 bb 53 bd 22 78 29 bd cf e0 74 bd
       -0.029779986 -0.05169203 -0.041374333 -0.059784707
0000e0 b3 9b 8e bd cd 23 27 bd 8a 6e 56 bd 71 b8 fe bc
       -0.06963291 -0.040805627 -0.052351512 -0.031093808
0000f0 b7 96 d6 bc 08 20 ab bc bf 95 e3 bc 98 ea 6a 3d
       -0.026194913 -0.020889297 -0.027781365 0.057352632
000100 82 e9 3a 3d 77 6d af 3c 92 33 0c 3d b5 f7 1f 3d
       0.045632847 0.021414502 0.03422887 0.03905459
000110 1e 30 01 3d 16 16 82 3d 61 40 0d 3d 5a 06 19 3c
       0.03154003 0.06351869 0.034485225 0.009339893
000120 06 f4 7a 3c 71 4d 9c bc d5 c2 90 3d ed 87 77 bc
       0.015316969 -0.019079896 0.07068411 -0.015108091
000130 91 87 71 3d 2a 50 b6 bc 0d ca b6 bd f4 9e 92 3d
       0.058967177 -0.022255022 -0.08925257 0.07159224
000140 51 a4 be 3c 3c 84 89 bd 14 17 74 bc fe 6e 54 bd
       0.023271712 -0.06714675 -0.01489808 -0.051863663
000150 80 dc 08 be 4b 07 ee bd f1 88 97 bd 02 55 6e bd
       -0.13365364 -0.11622485 -0.073991664 -0.05818654
000160 61 08 30 3d 9b 25 96 bd 4e 2e 94 bc dc 03 1f bb
       0.04297674 -0.073313914 -0.018088486 -0.0024263775
000170 fa 94 69 3a e0 9b ed bc 57 58 2b bd c3 75 0b bd
       0.0008910444 -0.029004991 -0.041832294 -0.034047853
000180 0e 33 08 bd 07 ad 2d bd 23 fd 06 bd 6a 36 98 bd
       -0.033251815 -0.04240134 -0.032956254 -0.07432254
000190 75 79 fa bb 47 46 d5 3c 22 cf a6 bd 2e 9d 9b bd
       -0.0076438733 0.026034487 -0.08144976 -0.07598339
0001a0 df 88 23 3c 12 1c b0 bc 8a 4e a4 bc cb 6b 8a bd
       0.009981363 -0.02149776 -0.020056982 -0.06758841
0001b0 37 00 b8 bd c5 70 8b bd da 4c 7f bd 9e b2 ef bc
       -0.08984416 -0.068086185 -0.06232915 -0.029259976
0001c0 c2 d7 c1 bd ab 15 be bd e2 2e f2 bc 21 85 5c bd
       -0.09464981 -0.092814766 -0.029563371 -0.0538379
0001d0 b2 0d 78 bd 3e ca 56 bd 17 51 e8 bc f9 ee 37 3c
       -0.060559936 -0.052438967 -0.02835898 0.011226409
0001e0 fc 4a b4 bd 64 c7 98 bc 2c c4 d3 bd 0d 97 28 bb
       -0.08803365 -0.018649764 -0.10340151 -0.00257248
0001f0 70 4a 07 3d 13 46 a3 3c 12 1e 68 3c 46 6e e2 3c
       0.033029974 0.019930875 0.014167326 0.027640473
000200 8e d0 ca bb 21 ea f3 3b 5a 1c 60 3c 20 8f 93 bc
       -0.0061894124 0.007443682 0.013678635 -0.018012583
000210 70 ca b4 bc 3a 0b 55 bb 76 9d 18 bc c5 dc 31 bd
       -0.022069186 -0.0032507912 -0.009314885 -0.043423433
000220 5e 15 3c 3b e1 50 54 bd 69 82 3b bd 64 1a 0d bd
       0.002869926 -0.051834945 -0.045778666 -0.034448996
000230 ed 58 55 bd c1 99 13 3e 9f 2b 83 3d e5 00 11 3e
       -0.05208676 0.14414121 0.064048044 0.14160497
000240 e0 c3 c0 bc 9b f8 d7 bc 24 c9 0c bd 4c 8a f8 bc
       -0.0235309 -0.026363662 -0.03437151 -0.030339383
000250 03 28 9e bc 2c df 01 bd 28 59 0c bc de 80 9e bc
       -0.019306188 -0.031706974 -0.008566178 -0.019348558
000260 3a 6f ad bc b3 86 12 3d ae 7f e8 3c 90 10 2c 3c
       -0.021171201 0.03577299 0.028381195 0.010501996
000270 a8 42 33 3d 82 c7 88 ba 52 14 17 bc 95 39 4b 3d
       0.04376474 -0.0010435435 -0.009221153 0.04961546
000280 28 57 fa 3b d2 f1 ad 3d 48 d5 2f bd a2 8d 81 bc
       0.0076397844 0.08493389 -0.04292801 -0.015814606
000290 5b 98 a8 bc 6f 76 81 3c de a3 56 bc 76 c3 69 ba
       -0.020580461 0.015803544 -0.013100592 -0.00089173706
0002a0 fc 6f 8d 3c 7e 30 69 3d e1 db 03 3c d4 ea 22 3c
       0.017265312 0.05693101 0.008048029 0.009943683
0002b0 d7 fc 49 bc 31 9a 79 3c d5 56 96 bc d0 d8 e0 bc
       -0.012328348 0.015234516 -0.018351952 -0.027447134
0002c0 9a 2f 4f bc 38 0e 92 bb 5c 7b 1a bd d0 47 18 bc
       -0.012645626 -0.0044572614 -0.0377153 -0.009294465
0002d0 75 6a d0 3d 1a 41 c2 3d b2 3c c7 bd 59 84 96 3d
       0.10176555 0.094850734 -0.097283736 0.07349462
0002e0 94 83 5b 3d 86 7a 23 be 26 8b 65 bd d4 12 67 bd
       0.05359228 -0.15964708 -0.056040905 -0.05641444
0002f0 8b 81 ff bb 70 c2 88 3a 58 15 87 bc 5d 68 54 bd
       -0.007797425 0.0010433923 -0.01648967 -0.05185734
000300 0a 32 16 bd 95 76 ee bc 9c af 57 3c 09 2f 33 3c
       -0.036668815 -0.029109279 0.013164427 0.010936507
000310 b9 02 de 3b 52 94 32 bd 9e ad be 3b 29 86 14 bd
       0.006775227 -0.04359848 0.0058190366 -0.036260758
000320 86 8e 44 bd 20 a2 f0 3c 76 a7 d8 bc 86 d6 1e bd
       -0.047987483 0.029374182 -0.02644704 -0.038778804
000330 0f 68 a2 bc d5 6c a2 3c cc f8 10 bd a8 77 a7 3c
       -0.01982501 0.019827286 -0.03539352 0.020442799
000340 e1 cd d9 3c e4 1a 9d 3c 4a 9c a9 3c fe 0a 4c 3c
       0.026587429 0.019177862 0.020704407 0.012453793
000350 c4 62 43 bb 5d b3 0c bc 93 de 0d 3c 0b 48 54 bc
       -0.0029813508 -0.008587685 0.008659023 -0.0129566295
000360 37 79 c9 bd bd 78 c4 bc 34 6d 0f be b6 33 69 bd
       -0.09837573 -0.023983354 -0.14006501 -0.05693408
000370 62 98 2c be 30 c5 65 bd cc 5e 6f be 97 d5 6c be
       -0.16855004 -0.056096256 -0.23376006 -0.23128353
000380 32 1c 8d bd eb 18 33 3d 07 c1 0f 3d e5 6a b8 bd
       -0.068901435 0.043724936 0.035096195 -0.090047635
000390 9d c9 83 bd d5 ff 05 3d 96 83 b2 bc 98 59 9c bb
       -0.06434939 0.032714684 -0.02179126 -0.0047714226
0003a0 ec 68 b2 bd 15 e5 ba 3c 3b a3 95 bd 34 24 8d bd
       -0.087114185 0.022814313 -0.07306524 -0.06891671
0003b0 f8 b2 fa bc 09 db 72 bd a2 d8 7e bd 84 cc 3a bd
       -0.030602917 -0.05929092 -0.062218316 -0.045605198
0003c0 e8 00 ee bc 64 1a b7 bb 51 b8 43 bd 55 36 8d 3c
       -0.029053167 -0.005587863 -0.0477832 0.017237822
0003d0 ac 45 bc 3c 62 c5 80 bd f8 f0 64 bd 2f 5e a0 3c
       0.02298244 -0.06287648 -0.05589387 0.01957616
0003e0 64 b1 6c 3c f2 b5 a8 3c e7 e5 cf 3c f4 e7 73 3d
       0.01444659 0.02059457 0.02537818 0.05954738
0003f0 55 a9 df bc cb 09 25 bd 83 54 c2 bc a6 28 65 bd
       -0.027302423 -0.040292542 -0.023721939 -0.05594697

cnn_layers.5.bias f4 [32]
000000 c1 c4 75 bd 35 34 86 bc f1 f5 10 3d 2d b1 2c bd
       -0.060002092 -0.016382316 0.035390798 -0.042161155
000010 cd 4e a7 bc 3c b4 55 3d 81 97 69 3b c2 85 80 bd
       -0.020423317 0.052173838 0.0035643282 -0.06275512
000020 c5 b8 a0 bd 09 82 be 3b 1d 01 a4 bd 36 94 52 3d
       -0.07847742 0.0058138412 -0.08008025 0.051410876
000030 31 f1 84 bd 34 ec 3d bd 3b 03 8d bc f5 6a 2f bc
       -0.06491316 -0.04636784 -0.017213454 -0.010706653
000040 56 31 8a 3d 7b 99 fa bc 4f 77 94 3d cb 0c be bd
       0.06747691 -0.030590763 0.07249319 -0.09279784
000050 bb da 05 bd 6a f3 2b bc 53 6a 6a bd 30 c3 d7 3c
       -0.0326793 -0.010495046 -0.057230305 0.02633819
000060 c0 cd bd 3d 00 03 2f bd 3e d1 81 bd a0 e6 46 bd
       0.09267759 -0.04272747 -0.06338738 -0.048559785
000070 a0 12 81 bc a4 ee 69 bd b5 cf 69 3d ef 01 d9 bd
       -0.015755951 -0.05711235 0.05708285 -0.10596072

cnn_layers.6.weight f4 [32]
000000 cc 99 3e 3f c9 21 3e 3f 47 5e 48 3f 03 2d 47 3f
       0.74453425 0.742703 0.78268856 0.7780306
000010 db 0f 41 3f 93 ae 2f 3f e4 a5 3d 3f 23 18 52 3f
       0.7541482 0.68625754 0.74081254 0.8206808
000020 d0 40 4c 3f 6b f6 42 3f 17 e2 43 3f cc d6 46 3f
       0.79786396 0.76157254 0.7651686 0.77671504
000030 fd 08 40 3f fc 88 46 3f 59 18 4b 3f 8c ed 4a 3f
       0.75013715 0.7755277 0.79334027 0.7926872
000040 15 28 44 3f 4e f8 41 3f 0f e8 4a 3f ff 95 41 3f
       0.7662366 0.7576951 0.79260343 0.756195
000050 c9 92 48 3f 75 2a 3c 3f 4a be 41 3f 52 0b 3c 3f
       0.78348976 0.73502284 0.75680983 0.73454773
000060 cd 3f 3e 3f b7 79 47 3f 50 e4 41 3f 67 ff 41 3f
       0.743161 0.779201 0.75739 0.7578034
000070 9e 80 56 3f 58 79 39 3f f5 ed 30 3f c2 eb 51 3f
       0.83790004 0.7245078 0.69113094 0.8200036

cnn_layers.6.bias f4 [32]
000000 c2 0d ae be 7f c1 98 be 4b e0 a2 be 6a b6 8b be
       -0.3399487 -0.29835126 -0.31811747 -0.27287608
000010 5e 63 97 be 2a 3c b5 be 00 5f b4 be 52 93 4a be
       -0.29568 -0.35397464 -0.3522873 -0.1978276
000020 89 e0 75 be 69 2c b2 be 4a 07 b0 be 79 35 73 be
       -0.24011435 -0.34799507 -0.3438056 -0.23750867
000030 be 61 6f be f1 03 6f be 93 e6 86 be f3 ce 90 be
       -0.2337713 -0.23341347 -0.2634779 -0.2828289
000040 a1 cc 86 be fe e4 95 be 53 70 41 be 22 24 8f be
       -0.26327994 -0.2927627 -0.18890505 -0.27957255
000050 71 c5 9d be 0b e4 a1 be a2 52 96 be b2 ab 99 be
       -0.30814698 -0.31619295 -0.2935992 -0.30013806
000060 c0 de 8d be 6f 5f 98 be 76 21 a2 be cb 5f 81 be
       -0.27709007 -0.2976031 -0.31666154 -0.25268397
000070 bc 3e 4f be d5 27 b3 be 74 44 a5 be 3d ff 6b be
       -0.20238775 -0.34991327 -0.32278788 -0.23046584

cnn_layers.6.running_mean f4 [32]
000000 f5 8a 62 bf 1c 99 6b bf 66 e1 73 bf d3 2b 42 bf
       -0.8849328 -0.920305 -0.95265806 -0.7584812
000010 94 91 44 bf 08 f0 93 bb 95 75 1a bf 1d e4 bd be
       -0.76784635 -0.004514698 -0.60335666 -0.370881
000020 19 e8 13 bf 87 d9 75 bf 56 c9 99 bf 42 20 2e be
       -0.5777603 -0.96035045 -1.2014568 -0.17004493
000030 54 be 1a bf e8 82 08 bf e0 0d 4c bf 83 da 66 bf
       -0.6044667 -0.5332475 -0.7970867 -0.9017717
000040 24 0a 73 bf 26 ca ed be ed 4e 6a bc 28 11 42 bf
       -0.9493735 -0.4644329 -0.014301044 -0.7580743
000050 c6 e7 23 bf 50 90 35 bf c0 fc 4e bf 42 47 69 bf
       -0.64025533 -0.7092333 -0.80854416 -0.91124356
000060 19 de 14 bf a6 ac 1a bf 96 7a 9a bf 12 e2 2f bf
       -0.58151394 -0.6041969 -1.206866 -0.6870433
000070 88 26 3a bf 1f 4c 9a bf 55 fc a4 3d 24 5b 81 be
       -0.72715044 -1.205448 0.08055941 -0.25264847

cnn_layers.6.running_var f4 [32]
000000 8f 84 ab 40 09 9b fc 40 eb 0f d5 40 5d c0 e4 40
       5.3599315 7.893925 6.658193 7.148482
000010 13 72 f8 40 9e 78 90 40 68 78 94 40 41 c3 97 40
       7.763925 4.514724 4.639698 4.7425847
000020 6e 0d 50 40 40 bf e8 40 ba 9e c4 40 95 cf 66 40
       3.2508197 7.273346 6.144376 3.6064198
000030 2d 4a c1 40 09 ca 6f 40 74 73 99 40 9c 10 ea 40
       6.0403047 3.7467062 4.7953434 7.3145275
000040 84 c1 34 41 c9 78 ab 40 4f e4 9f 40 cf 0a e6 40
       11.297245 5.3584943 4.9966197 7.1888194
000050 55 7d d1 40 b4 d0 a9 40 3e 49 f7 40 09 94 1b 41
       6.5465493 5.3067265 7.7276907 9.723641
000060 ac 28 9f 40 69 9e 96 40 20 a4 11 41 8e 77 e6 40
       4.973715 4.706837 9.10257 7.202094
000070 7c 48 a3 40 cf fd f3 40 83 2e a2 40 d1 4c 8a 40
       5.102598 7.6247325 5.0681777 4.321877

linear_layers.0.weight f4 [7, 14112]
000000 6a 6a 83 3c fd 99 92 3b 72 fb 19 bd a8 2d 2d bd
       0.016041953 0.0044739232 -0.037593313 -0.04227987
000010 57 28 68 bc ed d4 16 bd c0 3e 45 bb 02 6f eb bb
       -0.014169774 -0.036824156 -0.0030097216 -0.007184864
000020 0d 89 78 bc 54 19 e2 bc 75 70 13 bd bf 4a 3d bc
       -0.015169394 -0.027599968 -0.03599592 -0.011553465
000030 ab 27 38 3c f9 79 07 3d 5e 3c fa 3c e7 2f 82 bc
       0.011239926 0.033075307 0.030546363 -0.015891982
000040 32 4d 35 bd af ff 24 bd ea b7 fb bc 68 e5 10 bc
       -0.044263072 -0.0402829 -0.030727345 -0.008843757
000050 73 2b 43 3c df 12 99 3c 09 ad 0c 3c 86 b1 cc bc
       0.011912215 0.018685756 0.008586177 -0.024986994
000060 f0 74 81 bb e5 9a 0e bb f9 3f d8 bc 12 0f 1c bd
       -0.0039507076 -0.0021759805 -0.026397692 -0.03810031
000070 79 64 91 bc 51 7d 8b bb cf 46 55 b9 d9 09 ef bc
       -0.017748104 -0.0042568822 -0.00020339641 -0.0291795
000080 80 f6 90 bc 68 bb 92 3c 94 15 1c 3d b4 c4 18 3d
       -0.017695665 0.017911628 0.038106516 0.037296966
000090 87 e7 34 3a 99 91 78 bb 22 6d 4f bc 32 f0 05 bc
       0.00069009553 -0.003792858 -0.012660297 -0.008174943
0000a0 f4 d8 4b ba 71 10 e8 bc f9 e7 32 3c e4 45 55 3a
       -0.0007776164 -0.028328152 0.010919564 0.00081357197
0000b0 d0 ac 72 bc 11 51 a5 3a 8d 75 03 bd 6e 48 a7 bc
       -0.0148117095 0.0012612661 -0.032094527 -0.02042028
0000c0 a6 8c 9e bc 8a 42 f4 3a 90 15 10 3c 4b 71 e5 3b
       -0.019354176 0.0018635553 0.008794203 0.007002031
0000d0 ca 92 87 bc e5 57 70 bc 4c 6d 86 3b 7e 65 e1 3b
       -0.016549487 -0.014669393 0.0041023847 0.006878554
0000e0 d4 85 e8 3c 2c fa 0c bc df b5 47 bc ce 95 2d 3c
       0.028384127 -0.0086045675 -0.012189358 0.010594798
0000f0 a6 33 34 bb cc b7 92 39 47 c5 d3 39 2d fa 3d 3b
       -0.0027496605 0.0002798423 0.0004039204 0.0028988228
000100 ff 20 e1 bc f4 f5 b4 bb 32 c1 e1 b9 9a 3d 09 3c
       -0.027481554 -0.005522484 -0.00043059286 0.008376503
000110 da 1b a9 ba de b7 85 bc 8a 58 3a bc 77 2d cb 3b
       -0.0012901977 -0.016323026 -0.011373648 0.006200488
000120 55 a6 8b 3b b5 8b a9 3c db 0b b8 3c 3a 33 44 3c
       0.0042617717 0.0206965 0.02246659 0.011975104
000130 cb 3a c0 bc 4f b1 17 3c 7b fa 23 39 01 1b 87 bc
       -0.023465535 0.009258582 0.00015638203 -0.016492369
000140 0a 76 69 3c 16 f0 5e ba ae a0 85 3c 9d 91 4a 3c
       0.014249334 -0.00085044035 0.01631197 0.0123638185
000150 bd df 25 bc 05 ee 40 bc 59 88 3e 3c 1c c8 1b 3c
       -0.010124144 -0.011775498 0.0116291875 0.009508159
000160 68 f2 62 3b d4 65 96 3c 6b 66 71 3b e8 c0 01 bd
       0.0034629349 0.018359102 0.0036834728 -0.03167811
000170 64 e6 08 bd 59 e6 78 bb 57 80 cd bb fa cd 60 37
       -0.033422843 -0.0037979095 -0.006271403 1.3399398e-05
000180 6e 3d e1 3a c4 3d 6c bb a1 70 28 3d ac ef 23 3c
       0.0017184445 -0.0036047557 0.041123036 0.010005873
000190 3a 35 d2 ba 94 b0 08 bc 22 13 1f 3c 89 08 a4 3c
       -0.0016037591 -0.008342881 0.009709151 0.020023601
0001a0 c3 72 4b bb ed 48 bc bc dd 6a 25 bd bd f6 2d bc
       -0.0031043745 -0.022983992 -0.040385116 -0.010617909
0001b0 76 83 66 3b fe c2 21 bb 2c 62 bc 3c f0 ee d2 3c
       0.0035173572 -0.0024682875 0.02299603 0.0257487
0001c0 59 4a fb bb b3 32 ea ba b9 eb 1a bc cc a8 ec bb
       -0.007668775 -0.0017867893 -0.009455615 -0.0072222706
0001d0 c6 c1 aa ba c5 82 e5 3c bb 92 38 3d 02 24 8c 3d
       -0.001302772 0.028016457 0.045061808 0.068428054
0001e0 c9 95 67 3d 27 a4 27 3d 67 55 49 3c c0 0f 86 3c
       0.05653933 0.040928032 0.012288428 0.016364932
0001f0 fe 1d f9 3c bd 5c 9e 3b 6c 24 fd bc 3e 27 2e bd
       0.03040981 0.0048328326 -0.030901156 -0.042517893
000200 a8 be 17 ba e0 22 6a 3b ba cc 42 3c 60 1e 50 3c
       -0.0005788603 0.0035726354 0.011889631 0.012702554
000210 e4 81 3f 3c b8 41 65 3c 57 e8 71 3c be 0a b1 3c
       0.011688683 0.013992719 0.014764867 0.021611568
000220 fe c1 0b 3c ca 4e bc bc 87 0f 0e 3d 63 96 46 3d
       0.008530138 -0.022986788 0.034682777 0.048483264
000230 e0 e2 c4 3c c7 46 6b 3d 42 0d 13 3d e4 eb b4 bb
       0.024033964 0.057440545 0.035901316 -0.0055212844
000240 fb e0 8b 3c 10 c9 14 bc ea 27 26 bc cf d6 b0 ba
       0.017075052 -0.00908114 -0.010141352 -0.0013491752
000250 ae 99 12 bd 9d d8 ac 3a 6e 33 42 3c da d0 89 3c
       -0.03579109 0.0013187114 0.011853082 0.016823221
000260 d4 73 4f bc fa ea 21 bb e7 3b 2b 3d c9 e8 8c 3c
       -0.012661893 -0.0024706707 0.041805174 0.017200844
000270 85 f8 14 3c e3 7e 56 3c 81 d1 99 bc 11 05 83 bb
       0.009092455 0.013091776 -0.018776657 -0.0039984067
000280 2d 0a e2 3c 7b e0 96 ba b9 b6 b7 3c a6 aa 6e 3c
       0.027592743 -0.0011510992 0.022425996 0.014567053
000290 e5 05 ed bc 0a 6d bd bc 53 52 ea bc 05 23 b7 3a
       -0.028933475 -0.023123283 -0.028603708 0.0013972229
0002a0 46 1e 69 3c 1a 27 1c 3c 1a 60 e0 3b 52 f7 23 3c
       0.014228409 0.009530807 0.0068473937 0.010007696
0002b0 fa ad e1 3c 31 f6 63 3c 46 ff d4 3c 1c 0d 86 3c
       0.027548779 0.013913677 0.02600063 0.016363673
0002c0 52 76 1d bc c9 50 f2 bc f1 55 4b bc 9e 6e d2 bc
       -0.009610729 -0.029579537 -0.012410627 -0.025687512
0002d0 23 80 51 3c f3 da f5 bb b1 ea 90 bc 9b 00 9f bc
       0.012786898 -0.0075029074 -0.017690035 -0.019409468
0002e0 cc b2 ea bc 09 39 ec ba fd 95 22 bd a8 fa 24 bd
       -0.02864971 -0.0018022369 -0.03969382 -0.040278107
0002f0 54 a5 de 3c f5 91 8b 3c c9 6e 80 3c ed 56 a9 bc
       0.027178444 0.017037371 0.015677826 -0.020671332
000300 d7 4f e0 3a c2 eb c6 3c fe 94 f4 3b a0 65 07 3d
       0.0017113638 0.02428234 0.0074640503 0.0330559
000310 53 4c 29 3c 92 f0 2e bc 71 08 b4 bc 8c c3 c4 bc
       0.0103331385 -0.010677474 -0.021976681 -0.024019025
000320 ba 0a 01 bc 3d f1 e3 3b 47 50 ac bc 82 18 c9 ba
       -0.007876093 0.006956248 -0.021034373 -0.0015342387
000330 1b 3d 4f bc b1 82 08 bd d1 93 00 bd 3d 18 f1 bc
       -0.012648846 -0.033327762 -0.03139097 -0.029430503
000340 c8 cb ad bc 15 16 05 3c fb 69 5d bc 9b bc 2d bc
       -0.021215335 0.008122941 -0.013514037 -0.010604049
000350 6b 5a c4 bb f9 c4 80 bc 3f cb a8 3b 5d 91 9e 3c
       -0.005992224 -0.015718924 0.005151182 0.019356424
000360 96 5c 01 3c 56 80 84 3c a3 97 06 3c 24 63 09 3c
       0.007895609 0.016174477 0.008214864 0.008385453
000370 31 dd 26 bb ce 9d af ba 52 26 9d bc 26 f4 87 bc
       -0.002546143 -0.001339847 -0.019183312 -0.016595911
000380 f3 b7 e5 bb 87 a9 1d 3b c7 7b 79 bc e7 7b 1c 3c
       -0.007010454 0.0024057345 -0.015227265 0.009551025
000390 19 c5 58 3c ed eb e6 3b ee 2a d2 3b a6 57 73 ba
       0.0132305855 0.0070471675 0.006413809 -0.0009282775
0003a0 54 86 e0 bb ce 31 29 bc 87 99 9b bb 20 32 59 3c
       -0.0068519507 -0.010326816 -0.0047485265 0.01325658
0003b0 e4 2b 6d bb 5e 6f 89 3b c3 fd d7 3c ce cf 4b 3d
       -0.003618949 0.004194184 0.02636612 0.049758725
0003c0 ce 7a 4b 3d b2 e6 0e 3d 73 f9 a4 3c e4 4b fe bb
       0.049677663 0.034887977 0.020138478 -0.0077605117
0003d0 3c fb 99 bc e8 bc 9d bc 3f 18 f9 bc 0c 37 43 bc
       -0.018796556 -0.019255117 -0.03040707 -0.01191498
0003e0 49 1e 80 3a 9f b1 e3 3b 2a ef 51 ba 7a ed 3e 3b
       0.0009774651 0.0069486643 -0.00080083555 0.0029133246
0003f0 7a 73 37 3b 2e 70 21 bc 6a 3b 02 bd 7f 46 9e ba
       0.0027992413 -0.009853406 -0.031794943 -0.0012075453

linear_layers.0.bias f4 [7]
000000 dc 80 48 ba 63 b0 7e bc 04 06 9e bb 36 64 a5 3c
       -0.0007648596 -0.015544984 -0.0048224945 0.020189386
000010 ff 42 45 bb 9b 67 d4 bb 98 3f 23 bb
       -0.0030099747 -0.0064820773 -0.002490973
